app/src/main/assets/wakeword/hey_mycroft.tflite (tflite, 57248 bytes, 16 tensors)

model_1/dense_1/MatMul i1 [1, 960] scale=0.00574803 zero_point=0
-0.1551968 -0.00574803 0.07472439 0.16094483 0.10921256 -0.16094483 -0.41385815 -0.24141726
-0.24716528 -0.23566923 -0.20118104 -0.30464557 -0.06897636 0.057480298 -0.33913377 -0.25866133
-0.13220468 -0.08622044 -0.24716528 0.057480298 -0.1551968 -0.2529133 -0.24716528 0.13795272
-0.24141726 -0.24141726 0.08047242 0.01149606 -0.01149606 0.07472439 0.04023621 -0.37936997
0.08622044 0.03448818 -0.22992119 -0.3506298 -0.05173227 -0.04598424 -0.07472439 -0.21842512
0.00574803 0.17818892 0.29889756 -0.02299212 -0.05173227 0.02299212 0.05173227 -0.21842512
0.04023621 -0.13220468 -0.53456676 -0.2529133 0.18968499 0.01149606 -0.09771651 -0.09771651
-0.028740149 -0.43685025 -0.07472439 0.44259828 0.10346454 0.05173227 -0.27590543 -0.2529133
0.057480298 -0.1551968 0.057480298 0.16669287 0.07472439 -0.01149606 -0.24716528 -0.08622044
-0.16094483 -0.01149606 -0.18393695 -0.20118104 -0.06897636 0.08622044 -0.028740149 -0.01149606
-0.13795272 -0.13795272 -0.01149606 0.05173227 -0.04023621 -0.18393695 -0.16094483 0.04023621
-0.20692907 -0.05173227 0.28165346 -0.057480298 -0.04023621 0.08622044 0.063228324 -0.09196848
0.10921256 0.01724409 -0.09196848 -0.21842512 0.02299212 0.01149606 -0.01149606 -0.09196848
-0.09771651 0.13220468 0.16094483 -0.114960596 0.03448818 0.063228324 0.08047242 0.01149606
0.04023621 0.028740149 -0.27590543 -0.07472439 0.03448818 0.00574803 -0.14370075 -0.00574803
0.04023621 -0.20692907 -0.057480298 0.3506298 0.04023621 -0.05173227 -0.114960596 -0.08622044
0.10346454 -0.08047242 0.0 0.08622044 -0.04023621 -0.03448818 -0.10346454 -0.06897636
-0.13795272 -0.00574803 -0.08047242 -0.16669287 -0.04023621 0.00574803 -0.01149606 -0.08047242
-0.10921256 0.00574803 -0.04023621 0.07472439 -0.028740149 -0.114960596 -0.14944878 0.00574803
-0.14944878 0.01724409 0.13220468 0.00574803 0.01149606 0.02299212 0.04023621 -0.114960596
0.06897636 0.09771651 0.04598424 -0.2126771 -0.10921256 -0.06897636 0.01724409 -0.12070863
-0.22992119 0.057480298 0.10921256 -0.01149606 0.00574803 -0.01149606 0.063228324 -0.04598424
0.04023621 -0.04598424 -0.13795272 -0.08622044 -0.01149606 -0.04023621 -0.14370075 0.03448818
-0.00574803 -0.13795272 -0.02299212 0.16669287 0.14944878 -0.063228324 -0.06897636 -0.08622044
0.06897636 -0.08622044 0.04598424 0.057480298 0.05173227 0.04023621 -0.12645665 -0.13220468
-0.13220468 0.057480298 -0.114960596 -0.14370075 -0.04023621 0.03448818 -0.063228324 -0.13795272
-0.03448818 -0.10921256 0.0 0.02299212 -0.04023621 -0.05173227 -0.07472439 -0.09196848
-0.04598424 -0.04598424 0.063228324 -0.01724409 0.0 0.02299212 -0.04598424 -0.04598424
0.08622044 0.12070863 0.028740149 -0.12070863 -0.08047242 -0.1551968 0.01724409 -0.10921256
-0.114960596 0.00574803 0.01724409 -0.06897636 -0.12070863 0.00574803 0.114960596 -0.10346454
0.00574803 -0.13220468 -0.12070863 -0.08622044 0.01149606 -0.02299212 -0.08622044 -0.028740149
-0.13220468 -0.06897636 -0.14944878 0.20692907 0.10346454 0.01724409 -0.114960596 -0.01724409
00000000: e5ff 0d1c 13e4 b8d6 d5d7 ddcb f40a c5d3
00000010: e9f1 d50a e5d4 d518 d6d6 0e02 fe0d 07be
00000020: 0f06 d8c3 f7f8 f3da 011f 34fc f704 09da
00000030: 07e9 a3d4 2102 efef fbb4 f34d 1209 d0d4
00000040: 0ae5 0a1d 0dfe d5f1 e4fe e0dd f40f fbfe
00000050: e8e8 fe09 f9e0 e407 dcf7 31f6 f90f 0bf0
00000060: 1303 f0da 0402 fef0 ef17 1cec 060b 0e02
00000070: 0705 d0f3 0601 e7ff 07dc f63d 07f7 ecf1
00000080: 12f2 000f f9fa eef4 e8ff f2e3 f901 fef2
00000090: ed01 f90d fbec e601 e603 1701 0204 07ec
000000a0: 0c11 08db edf4 03eb d80a 13fe 01fe 0bf8
000000b0: 07f8 e8f1 fef9 e706 ffe8 fc1d 1af5 f4f1
000000c0: 0cf1 080a 0907 eae9 e90a ece7 f906 f5e8
000000d0: faed 0004 f9f7 f3f0 f8f8 0bfd 0004 f8f8
000000e0: 0f15 05eb f2e5 03ed ec01 03f4 eb01 14ee
000000f0: 01e9 ebf1 02fc f1fb e9f4 e624 1203 ecfd

model_1/conv2d_9/Conv2D i1 [64, 1, 1, 64]
31 -13 -49 21 36 -4 -49 -24
-51 26 20 49 33 30 21 39
36 63 23 21 90 81 -5 -28
-20 -5 54 -67 -18 28 27 -49
5 18 107 -60 -27 75 -20 3
-83 8 104 27 -44 -18 -48 -42
-20 -61 45 7 2 -36 27 -18
22 58 61 56 8 -9 77 -127
2 -21 -64 -14 -25 22 8 31
-47 -52 22 -56 40 -16 127 75
59 -41 -15 53 -34 66 -8 42
17 24 -49 34 32 -1 -3 -25
-71 -47 15 11 37 37 67 41
-13 -88 -46 -13 15 -2 13 -52
44 27 58 14 31 -48 -53 -59
-48 47 -4 21 -52 -58 -43 1
-127 48 43 -6 -74 -18 -16 -53
-48 -34 -1 32 -24 4 9 -32
74 38 -36 21 18 57 39 17
22 10 -23 -17 0 -19 -92 2
16 -47 66 53 -5 0 -25 37
56 58 18 6 -15 0 43 -1
-47 18 52 -54 34 -41 -21 11
-12 34 6 14 -10 34 91 -53
100 -31 -75 -21 37 103 -14 -30
74 13 16 -4 -4 -76 9 -26
-65 33 63 -48 63 -10 47 124
58 -50 -49 8 40 7 86 -62
-24 37 30 59 77 -10 2 24
21 13 -50 -72 -4 9 -30 -49
-34 -44 8 -17 27 78 -112 -59
-9 19 -127 -79 2 -50 5 22
00000000: 1ff3 cf15 24fc cfe8 cd1a 1431 211e 1527
00000010: 243f 1715 5a51 fbe4 ecfb 36bd ee1c 1bcf
00000020: 0512 6bc4 e54b ec03 ad08 681b d4ee d0d6
00000030: ecc3 2d07 02dc 1bee 163a 3d38 08f7 4d81
00000040: 02eb c0f2 e716 081f d1cc 16c8 28f0 7f4b
00000050: 3bd7 f135 de42 f82a 1118 cf22 20ff fde7
00000060: b9d1 0f0b 2525 4329 f3a8 d2f3 0ffe 0dcc
00000070: 2c1b 3a0e 1fd0 cbc5 d02f fc15 ccc6 d501
00000080: 8130 2bfa b6ee f0cb d0de ff20 e804 09e0
00000090: 4a26 dc15 1239 2711 160a e9ef 00ed a402
000000a0: 10d1 4235 fb00 e725 383a 1206 f100 2bff
000000b0: d112 34ca 22d7 eb0b f422 060e f622 5bcb
000000c0: 64e1 b5eb 2567 f2e2 4a0d 10fc fcb4 09e6
000000d0: bf21 3fd0 3ff6 2f7c 3ace cf08 2807 56c2
000000e0: e825 1e3b 4df6 0218 150d ceb8 fc09 e2cf
000000f0: ded4 08ef 1b4e 90c5 f713 81b1 02ce 0516

model_1/depthwise_conv2d_7/depthwise i1 [1, 21, 1, 64]
2 -67 10 63 127 -118 -61 -52
62 127 25 127 -5 -29 22 -78
-5 0 127 -127 36 -33 127 -127
-127 20 -55 47 -127 -43 15 -127
96 -127 -127 0 -127 -56 -125 107
127 22 127 127 61 -108 -127 123
17 -2 -38 -127 127 96 -126 -15
-56 127 -127 -125 83 36 -127 90
-5 -28 -16 39 79 -94 -33 -42
43 111 23 71 40 -55 1 -51
-34 14 96 -87 53 -32 93 -89
-65 49 -27 -39 -38 -96 19 -94
72 -74 -101 4 -65 -49 -100 62
77 -22 51 51 35 -86 -82 127
-86 4 -106 -49 75 69 -88 -13
-67 43 -37 -127 44 16 -72 -44
-9 3 -5 45 33 -60 -4 -15
34 5 26 49 65 -41 -7 -60
-46 7 66 -70 43 -22 51 -32
-28 78 -20 -39 -31 -127 17 -83
38 -17 -112 -2 -11 -52 -127 16
48 -15 49 57 -1 -49 -100 86
-97 8 -55 -45 49 63 -68 -20
-65 -62 -27 -110 73 31 -16 -72
-3 -18 48 23 19 -27 -7 -5
11 -29 90 32 4 -22 -19 -32
-51 10 29 -32 34 0 24 -46
-14 121 4 -12 -20 -48 16 -55
-23 18 -91 -8 -15 -35 -77 -13
9 -74 37 40 -5 -53 -60 97
-101 -6 -59 -39 -4 19 -72 -35
-73 -103 -63 -114 38 1 24 -127
00000000: 02bd 0a3f 7f8a c3cc 3e7f 197f fbe3 16b2
00000010: fb00 7f81 24df 7f81 8114 c92f 81d5 0f81
00000020: 6081 8100 81c8 836b 7f16 7f7f 3d94 817b
00000030: 11fe da81 7f60 82f1 c87f 8183 5324 815a
00000040: fbe4 f027 4fa2 dfd6 2b6f 1747 28c9 01cd
00000050: de0e 60a9 35e0 5da7 bf31 e5d9 daa0 13a2
00000060: 48b6 9b04 bfcf 9c3e 4dea 3333 23aa ae7f
00000070: aa04 96cf 4b45 a8f3 bd2b db81 2c10 b8d4
00000080: f703 fb2d 21c4 fcf1 2205 1a31 41d7 f9c4
00000090: d207 42ba 2bea 33e0 e44e ecd9 e181 11ad
000000a0: 26ef 90fe f5cc 8110 30f1 3139 ffcf 9c56
000000b0: 9f08 c9d3 313f bcec bfc2 e592 491f f0b8
000000c0: fdee 3017 13e5 f9fb 0be3 5a20 04ea ede0
000000d0: cd0a 1de0 2200 18d2 f279 04f4 ecd0 10c9
000000e0: e912 a5f8 f1dd b3f3 09b6 2528 fbcb c461
000000f0: 9bfa c5d9 fc13 b8dd b799 c18e 2601 1881

model_1/conv2d_8/Conv2D i1 [64, 1, 1, 64]
20 -58 47 -22 16 -27 91 -52
4 -57 -26 46 59 46 -118 26
-15 40 22 -12 65 12 -33 -26
42 5 -32 11 2 7 14 60
-2 64 -35 0 18 21 73 39
-54 63 32 17 15 -37 -4 55
-127 2 -2 15 15 -21 98 55
6 94 16 -31 36 52 -33 -42
-72 26 23 -35 7 -87 -35 -120
8 65 -1 17 -22 -52 0 32
-3 40 -43 20 40 85 -7 22
14 -49 -5 -27 -20 64 -4 35
38 -2 -108 97 -80 72 39 21
-50 -59 -18 43 -18 33 -21 -4
-47 -14 64 -127 -47 10 5 29
58 17 -36 15 -72 49 -54 121
-36 -16 -23 -8 -9 -58 7 6
-16 -39 21 -23 -18 -89 19 -9
-55 32 44 2 -58 1 66 18
39 55 -15 -64 63 -33 -20 71
-5 0 4 19 -27 -35 -20 -40
-1 -25 -14 67 -46 -127 -9 -11
57 7 53 -84 0 -27 54 87
23 -1 -1 22 -58 3 5 15
73 127 -39 -60 6 -22 -47 5
83 -26 -27 -43 -9 -69 -46 -15
48 52 -9 61 24 -49 47 -20
-66 -36 85 76 73 -111 -26 -3
-16 -28 11 103 -17 -38 -51 -76
23 -37 107 51 18 11 31 10
47 45 7 -63 1 69 -9 -13
7 12 108 48 -26 9 -3 -3
00000000: 14c6 2fea 10e5 5bcc 04c7 e62e 3b2e 8a1a
00000010: f128 16f4 410c dfe6 2a05 e00b 0207 0e3c
00000020: fe40 dd00 1215 4927 ca3f 2011 0fdb fc37
00000030: 8102 fe0f 0feb 6237 065e 10e1 2434 dfd6
00000040: b81a 17dd 07a9 dd88 0841 ff11 eacc 0020
00000050: fd28 d514 2855 f916 0ecf fbe5 ec40 fc23
00000060: 26fe 9461 b048 2715 cec5 ee2b ee21 ebfc
00000070: d1f2 4081 d10a 051d 3a11 dc0f b831 ca79
00000080: dcf0 e9f8 f7c6 0706 f0d9 15e9 eea7 13f7
00000090: c920 2c02 c601 4212 2737 f1c0 3fdf ec47
000000a0: fb00 0413 e5dd ecd8 ffe7 f243 d281 f7f5
000000b0: 3907 35ac 00e5 3657 17ff ff16 c603 050f
000000c0: 497f d9c4 06ea d105 53e6 e5d5 f7bb d2f1
000000d0: 3034 f73d 18cf 2fec bedc 554c 4991 e6fd
000000e0: f0e4 0b67 efda cdb4 17db 6b33 120b 1f0a
000000f0: 2f2d 07c1 0145 f7f3 070c 6c30 e609 fdfd

model_1/depthwise_conv2d_6/depthwise i1 [1, 13, 1, 64]
-15 -32 -39 2 41 51 91 -107
127 -25 127 127 -127 -49 -45 -127
-91 8 122 99 127 103 42 -118
127 -81 83 41 -59 -54 41 -70
-123 111 -127 2 -19 83 14 127
-84 -60 18 83 127 87 127 -127
-121 68 127 127 -15 49 0 -101
114 45 81 -48 -12 -25 -123 68
-19 -28 -20 93 26 82 53 -67
71 -29 103 68 -50 -42 0 -104
-45 38 38 31 74 70 16 -118
64 -127 71 -43 -19 -92 17 -83
-73 67 -95 -40 18 80 -42 82
-16 -60 -43 106 125 105 117 -59
-74 33 68 100 56 61 3 -127
127 56 -17 -46 -40 4 -127 46
-45 -23 -17 68 -12 60 80 -94
98 -35 77 36 -25 -10 -3 -66
51 18 62 -27 33 114 60 -43
38 -97 7 -65 10 -97 45 -72
-109 73 -32 -30 17 127 -69 62
-31 5 -86 49 80 94 28 1
-39 56 81 106 -9 67 -15 -59
123 26 50 -31 -38 24 -51 13
-72 -33 22 63 -20 90 50 -54
92 -1 103 21 -20 85 0 -82
75 3 -32 -101 -4 127 116 -4
-32 -123 -50 -88 0 -69 2 -42
-68 47 -24 -34 17 87 -72 70
-50 -36 -127 92 20 15 -2 1
-2 7 81 84 -5 86 -13 -35
94 8 -45 -1 -45 64 1 55
00000000: f1e0 d902 2933 5b95 7fe7 7f7f 81cf d381
00000010: a508 7a63 7f67 2a8a 7faf 5329 c5ca 29ba
00000020: 856f 8102 ed53 0e7f acc4 1253 7f57 7f81
00000030: 8744 7f7f f131 009b 722d 51d0 f4e7 8544
00000040: ede4 ec5d 1a52 35bd 47e3 6744 ced6 0098
00000050: d326 261f 4a46 108a 4081 47d5 eda4 11ad
00000060: b743 a1d8 1250 d652 f0c4 d56a 7d69 75c5
00000070: b621 4464 383d 0381 7f38 efd2 d804 812e
00000080: d3e9 ef44 f43c 50a2 62dd 4d24 e7f6 fdbe
00000090: 3312 3ee5 2172 3cd5 269f 07bf 0a9f 2db8
000000a0: 9349 e0e2 117f bb3e e105 aa31 505e 1c01
000000b0: d938 516a f743 f1c5 7b1a 32e1 da18 cd0d
000000c0: b8df 163f ec5a 32ca 5cff 6715 ec55 00ae
000000d0: 4b03 e09b fc7f 74fc e085 cea8 00bb 02d6
000000e0: bc2f e8de 1157 b846 cedc 815c 140f fe01
000000f0: fe07 5154 fb56 f3dd 5e08 d3ff d340 0137

model_1/conv2d_7/Conv2D i1 [64, 1, 1, 64]
-6 4 -38 101 85 2 -56 35
-3 -4 16 88 0 4 -38 0
7 43 42 88 -61 -36 127 32
-17 -51 -126 -16 -40 22 5 53
-32 59 -64 25 3 114 -6 -34
8 -14 -71 -49 -73 -3 87 -18
111 -20 111 56 51 -18 -75 17
52 -85 19 71 -27 -31 -58 -34
-5 94 -74 67 82 -8 -24 -46
27 46 114 -61 17 -26 20 36
3 28 -77 -88 61 10 -28 -52
-106 6 -3 53 -95 -53 50 -62
-24 19 -60 52 114 -64 29 -95
8 76 24 -109 -36 -35 -71 -39
2 -62 7 -17 -53 -8 127 -40
32 9 -36 -11 -42 -19 3 32
47 96 15 -9 9 -52 12 -6
-58 -16 -46 -60 19 -2 34 -26
49 -23 -54 -87 5 -28 44 -98
31 -1 8 -62 38 -119 -20 6
80 27 -42 -31 -112 32 -20 -31
14 -35 -53 99 -99 -54 69 -53
46 -127 63 14 23 2 -92 78
46 -4 65 -59 31 -11 49 -41
26 -88 64 -50 -40 -18 -66 -69
27 -8 35 71 -43 -45 -5 44
-22 -1 26 77 6 -42 -53 -14
-36 -75 8 62 14 -87 17 -64
127 13 21 -107 -44 -30 -9 -44
13 92 10 -16 -102 -37 53 -18
50 -45 83 41 80 27 -37 27
-8 15 -72 32 95 31 -100 -76
00000000: fa04 da65 5502 c823 fdfc 1058 0004 da00
00000010: 072b 2a58 c3dc 7f20 efcd 82f0 d816 0535
00000020: e03b c019 0372 fade 08f2 b9cf b7fd 57ee
00000030: 6fec 6f38 33ee b511 34ab 1347 e5e1 c6de
00000040: fb5e b643 52f8 e8d2 1b2e 72c3 11e6 1424
00000050: 031c b3a8 3d0a e4cc 9606 fd35 a1cb 32c2
00000060: e813 c434 72c0 1da1 084c 1893 dcdd b9d9
00000070: 02c2 07ef cbf8 7fd8 2009 dcf5 d6ed 0320
00000080: 2f60 0ff7 09cc 0cfa c6f0 d2c4 13fe 22e6
00000090: 31e9 caa9 05e4 2c9e 1fff 08c2 2689 ec06
000000a0: 501b d6e1 9020 ece1 0edd cb63 9dca 45cb
000000b0: 2e81 3f0e 1702 a44e 2efc 41c5 1ff5 31d7
000000c0: 1aa8 40ce d8ee bebb 1bf8 2347 d5d3 fb2c
000000d0: eaff 1a4d 06d6 cbf2 dcb5 083e 0ea9 11c0
000000e0: 7f0d 1595 d4e2 f7d4 0d5c 0af0 9adb 35ee
000000f0: 32d3 5329 501b db1b f80f b820 5f1f 9cb4

model_1/depthwise_conv2d_5/depthwise i1 [1, 9, 1, 64]
29 -48 39 -3 -81 -80 127 -21
111 38 -108 -37 -127 52 29 -47
124 -127 100 127 -36 -127 -31 -34
33 5 -118 -127 -127 -2 42 -74
-47 3 -51 127 -54 -7 19 127
-117 -28 53 -62 -19 54 29 -83
61 4 -1 68 124 46 -52 -127
-78 -122 91 -2 -53 -127 59 50
20 21 14 54 -122 -14 32 -44
109 68 -83 84 -83 30 41 31
127 -77 76 75 9 -57 -34 -36
25 34 -94 -115 -68 10 43 -95
-67 70 -100 70 -15 21 -48 104
-127 -42 31 -8 5 6 21 -22
11 6 18 17 127 -16 -38 -59
-56 -109 74 12 3 -10 41 52
127 -36 -84 95 -81 -53 64 -32
127 54 -13 41 -64 79 102 48
65 -28 45 11 -7 -79 -64 13
15 127 -82 -73 -36 64 55 -34
-97 75 -50 68 -59 80 4 27
-97 -30 127 -18 5 -41 38 37
-28 38 -30 -14 83 27 10 -38
-29 7 7 7 -13 47 117 36
126 5 -119 19 -10 31 -60 19
101 127 4 19 -23 90 79 127
-4 20 64 -17 14 -44 -54 71
25 9 -42 -15 25 1 36 118
-109 29 -82 40 -113 107 -6 -16
-56 -60 122 31 -19 -70 43 41
54 48 8 127 -21 127 -11 19
-40 127 17 24 34 -21 127 127
00000000: 1dd0 27fd afb0 7feb 6f26 94db 8134 1dd1
00000010: 7c81 647f dc81 e1de 2105 8a81 81fe 2ab6
00000020: d103 cd7f caf9 137f 8be4 35c2 ed36 1dad
00000030: 3d04 ff44 7c2e cc81 b286 5bfe cb81 3b32
00000040: 1415 0e36 86f2 20d4 6d44 ad54 ad1e 291f
00000050: 7fb3 4c4b 09c7 dedc 1922 a28d bc0a 2ba1
00000060: bd46 9c46 f115 d068 81d6 1ff8 0506 15ea
00000070: 0b06 1211 7ff0 dac5 c893 4a0c 03f6 2934
00000080: 7fdc ac5f afcb 40e0 7f36 f329 c04f 6630
00000090: 41e4 2d0b f9b1 c00d 0f7f aeb7 dc40 37de
000000a0: 9f4b ce44 c550 041b 9fe2 7fee 05d7 2625
000000b0: e426 e2f2 531b 0ada e307 0707 f32f 7524
000000c0: 7e05 8913 f61f c413 657f 0413 e95a 4f7f
000000d0: fc14 40ef 0ed4 ca47 1909 d6f1 1901 2476
000000e0: 931d ae28 8f6b faf0 c8c4 7a1f edba 2b29
000000f0: 3630 087f eb7f f513 d87f 1118 22eb 7f7f

model_1/conv2d_6/Conv2D i1 [64, 1, 1, 32]
7 -36 78 31 -32 97 33 -2
18 5 -82 37 -10 12 31 -3
74 -13 -53 -106 -14 69 33 -13
33 -71 13 22 14 -127 -90 -37
68 -16 -23 69 92 -11 1 -48
3 8 39 -60 18 74 -23 32
-93 127 -46 112 -26 -61 4 -25
-55 52 -114 -48 16 31 -46 -71
88 -19 49 -34 -127 3 88 -61
9 -13 -3 23 15 -65 -14 89
-64 -25 43 -11 8 39 47 -30
66 28 -39 2 22 -16 -14 -7
-24 13 27 -53 30 26 -40 -16
30 -40 -30 -30 -59 -46 -33 13
34 17 11 -31 -15 19 -9 -45
-35 -79 -47 21 18 -74 -28 -127
56 85 -127 15 18 -10 -8 23
-17 18 -11 -39 28 31 59 -125
9 -24 32 26 75 -46 -33 41
-61 38 -36 74 -30 -32 -15 23
-1 26 -127 11 -22 42 5 54
60 36 -59 -102 23 -8 -73 -80
-38 -29 110 34 39 47 -13 51
-57 7 110 83 -92 -84 -81 -94
-14 -59 -10 -27 -83 8 -80 35
-7 61 -33 10 7 -5 -47 52
15 -7 -44 19 -89 34 127 12
-87 58 -32 17 13 -37 45 97
32 -59 -48 77 5 127 66 -60
-52 -30 -15 -24 -14 31 13 45
21 27 -1 -15 16 -27 6 40
45 -93 14 66 25 92 -49 9
00000000: 07dc 4e1f e061 21fe 1205 ae25 f60c 1ffd
00000010: 4af3 cb96 f245 21f3 21b9 0d16 0e81 a6db
00000020: 44f0 e945 5cf5 01d0 0308 27c4 124a e920
00000030: a37f d270 e6c3 04e7 c934 8ed0 101f d2b9
00000040: 58ed 31de 8103 58c3 09f3 fd17 0fbf f259
00000050: c0e7 2bf5 0827 2fe2 421c d902 16f0 f2f9
00000060: e80d 1bcb 1e1a d8f0 1ed8 e2e2 c5d2 df0d
00000070: 2211 0be1 f113 f7d3 ddb1 d115 12b6 e481
00000080: 3855 810f 12f6 f817 ef12 f5d9 1c1f 3b83
00000090: 09e8 201a 4bd2 df29 c326 dc4a e2e0 f117
000000a0: ff1a 810b ea2a 0536 3c24 c59a 17f8 b7b0
000000b0: dae3 6e22 272f f333 c707 6e53 a4ac afa2
000000c0: f2c5 f6e5 ad08 b023 f93d df0a 07fb d134
000000d0: 0ff9 d413 a722 7f0c a93a e011 0ddb 2d61
000000e0: 20c5 d04d 057f 42c4 cce2 f1e8 f21f 0d2d
000000f0: 151b fff1 10e5 0628 2da3 0e42 195c cf09

model_1/depthwise_conv2d_4/depthwise1 i1 [1, 5, 1, 32]
43 -49 16 -22 52 -55 80 -107
-30 -44 -26 -24 127 127 -127 112
-19 85 101 48 -41 -57 -127 -72
-48 75 -99 52 48 -15 127 -46
-20 -60 70 -5 -52 -127 -30 127
29 -127 -5 -124 -27 23 -20 124
-49 87 69 101 56 -38 16 55
-127 71 27 -41 -79 74 -71 -62
62 -50 68 41 -3 -80 -127 123
30 -13 13 65 -68 90 74 74
-127 45 -127 65 -91 -75 29 69
-83 -54 9 -127 -127 -4 -72 127
127 97 127 -3 119 -92 -21 -14
-3 28 127 127 -60 49 4 -77
81 -13 -115 89 -103 -94 29 -59
28 -127 127 29 -35 -127 -16 98
-10 127 124 127 127 -97 91 41
127 87 104 42 -2 32 6 -127
77 -127 110 127 -127 -127 43 127
122 31 107 90 9 -101 58 83
00000000: 2bcf 10ea 34c9 5095 e2d4 e6e8 7f7f 8170
00000010: ed55 6530 d7c7 81b8 d04b 9d34 30f1 7fd2
00000020: ecc4 46fb cc81 e27f 1d81 fb84 e517 ec7c
00000030: cf57 4565 38da 1037 8147 1bd7 b14a b9c2
00000040: 3ece 4429 fdb0 817b 1ef3 0d41 bc5a 4a4a
00000050: 812d 8141 a5b5 1d45 adca 0981 81fc b87f
00000060: 7f61 7ffd 77a4 ebf2 fd1c 7f7f c431 04b3
00000070: 51f3 8d59 99a2 1dc5 1c81 7f1d dd81 f062
00000080: f67f 7c7f 7f9f 5b29 7f57 682a fe20 0681
00000090: 4d81 6e7f 8181 2b7f 7a1f 6b5a 099b 3a53

model_1/stream_6/conv2d_5/Conv2D i1 [32, 5, 1, 40]
50 31 -34 -41 -6 -32 -5 18
-8 34 -2 6 2 -2 -81 -30
24 22 -14 -127 -70 -94 -71 -12
-21 20 22 9 12 -8 -6 21
7 24 -2 2 -12 -33 -18 -22
18 58 -6 -47 -59 -81 -18 -7
13 18 40 21 -5 -15 -52 -20
16 -32 -26 -94 -76 -82 -51 1
-10 29 11 23 -7 24 9 -18
-22 -9 7 -31 -23 -17 -2 -5
42 42 -14 -62 -30 -68 -8 19
28 32 40 47 8 16 -3 20
2 -43 -75 -59 -71 -23 -23 -9
18 21 46 38 26 24 -2 3
-4 35 -8 -45 -4 -15 -3 -28
21 12 4 -52 -42 -33 -15 15
58 29 7 20 38 70 3 1
3 -34 -64 -90 -99 -78 -48 23
43 70 42 33 39 54 -4 34
-5 14 8 3 -29 -50 -37 0
21 37 32 -36 -61 -32 11 44
11 43 32 35 26 40 13 26
2 -29 -69 -64 -89 -63 -21 2
40 80 64 29 36 46 18 55
19 8 27 -14 -42 -41 -30 -37
-62 -59 11 24 23 -29 -79 -47
-64 21 -19 -17 -4 32 15 -42
-2 -8 39 37 12 36 20 12
37 24 37 8 35 -18 16 -4
1 -13 9 -17 46 47 70 119
-92 -31 2 2 -8 -9 -46 -21
-15 17 41 -22 -10 -41 -69 -17
00000000: 321f ded7 fae0 fb12 f822 fe06 02fe afe2
00000010: 1816 f281 baa2 b9f4 eb14 1609 0cf8 fa15
00000020: 0718 fe02 f4df eeea 123a fad1 c5af eef9
00000030: 0d12 2815 fbf1 ccec 10e0 e6a2 b4ae cd01
00000040: f61d 0b17 f918 09ee eaf7 07e1 e9ef fefb
00000050: 2a2a f2c2 e2bc f813 1c20 282f 0810 fd14
00000060: 02d5 b5c5 b9e9 e9f7 1215 2e26 1a18 fe03
00000070: fc23 f8d3 fcf1 fde4 150c 04cc d6df f10f
00000080: 3a1d 0714 2646 0301 03de c0a6 9db2 d017
00000090: 2b46 2a21 2736 fc22 fb0e 0803 e3ce db00
000000a0: 1525 20dc c3e0 0b2c 0b2b 2023 1a28 0d1a
000000b0: 02e3 bbc0 a7c1 eb02 2850 401d 242e 1237
000000c0: 1308 1bf2 d6d7 e2db c2c5 0b18 17e3 b1d1
000000d0: c015 edef fc20 0fd6 fef8 2725 0c24 140c
000000e0: 2518 2508 23ee 10fc 01f3 09ef 2e2f 4677
000000f0: a4e1 0202 f8f7 d2eb f111 29ea f6d7 bbef

tfl.pseudo_qconst i1 [1, 12, 1, 64] scale=0.04227806 zero_point=-128
0.0 0.0 0.0 0.0 0.0 0.0 0.0 0.0
0.0 0.0 0.0 0.0 0.0 0.0 0.0 0.0
0.0 0.0 0.0 0.0 0.0 0.0 0.0 0.0
0.0 0.0 0.0 0.0 0.0 0.0 0.0 0.0
0.0 0.0 0.0 0.0 0.0 0.0 0.0 0.0
0.0 0.0 0.0 0.0 0.0 0.0 0.0 0.0
0.0 0.0 0.0 0.0 0.0 0.0 0.0 0.0
0.0 0.0 0.0 0.0 0.0 0.0 0.0 0.0
0.0 0.0 0.0 0.0 0.0 0.0 0.0 0.0
0.0 0.0 0.0 0.0 0.0 0.0 0.0 0.0
0.0 0.0 0.0 0.0 0.0 0.0 0.0 0.0
0.0 0.0 0.0 0.0 0.0 0.0 0.0 0.0
0.0 0.0 0.0 0.0 0.0 0.0 0.0 0.0
0.0 0.0 0.0 0.0 0.0 0.0 0.0 0.0
0.0 0.0 0.0 0.0 0.0 0.0 0.0 0.0
0.0 0.0 0.0 0.0 0.0 0.0 0.0 0.0
0.0 0.0 0.0 0.0 0.0 0.0 0.0 0.0
0.0 0.0 0.0 0.0 0.0 0.0 0.0 0.0
0.0 0.0 0.0 0.0 0.0 0.0 0.0 0.0
0.0 0.0 0.0 0.0 0.0 0.0 0.0 0.0
0.0 0.0 0.0 0.0 0.0 0.0 0.0 0.0
0.0 0.0 0.0 0.0 0.0 0.0 0.0 0.0
0.0 0.0 0.0 0.0 0.0 0.0 0.0 0.0
0.0 0.0 0.0 0.0 0.0 0.0 0.0 0.0
0.0 0.0 0.0 0.0 0.0 0.0 0.0 0.0
0.0 0.0 0.0 0.0 0.0 0.0 0.0 0.0
0.0 0.0 0.0 0.0 0.0 0.0 0.0 0.0
0.0 0.0 0.0 0.0 0.0 0.0 0.0 0.0
0.0 0.0 0.0 0.0 0.0 0.0 0.0 0.0
0.0 0.0 0.0 0.0 0.0 0.0 0.0 0.0
0.0 0.0 0.0 0.0 0.0 0.0 0.0 0.0
0.0 0.0 0.0 0.0 0.0 0.0 0.0 0.0
00000000: 8080 8080 8080 8080 8080 8080 8080 8080
00000010: 8080 8080 8080 8080 8080 8080 8080 8080
00000020: 8080 8080 8080 8080 8080 8080 8080 8080
00000030: 8080 8080 8080 8080 8080 8080 8080 8080
00000040: 8080 8080 8080 8080 8080 8080 8080 8080
00000050: 8080 8080 8080 8080 8080 8080 8080 8080
00000060: 8080 8080 8080 8080 8080 8080 8080 8080
00000070: 8080 8080 8080 8080 8080 8080 8080 8080
00000080: 8080 8080 8080 8080 8080 8080 8080 8080
00000090: 8080 8080 8080 8080 8080 8080 8080 8080
000000a0: 8080 8080 8080 8080 8080 8080 8080 8080
000000b0: 8080 8080 8080 8080 8080 8080 8080 8080
000000c0: 8080 8080 8080 8080 8080 8080 8080 8080
000000d0: 8080 8080 8080 8080 8080 8080 8080 8080
000000e0: 8080 8080 8080 8080 8080 8080 8080 8080
000000f0: 8080 8080 8080 8080 8080 8080 8080 8080

tfl.pseudo_qconst1 i1 [1, 8, 1, 64] scale=0.036689665 zero_point=-128
0.0 0.0 0.0 0.0 0.0 0.0 0.0 0.0
0.0 0.0 0.0 0.0 0.0 0.0 0.0 0.0
0.0 0.0 0.0 0.0 0.0 0.0 0.0 0.0
0.0 0.0 0.0 0.0 0.0 0.0 0.0 0.0
0.0 0.0 0.0 0.0 0.0 0.0 0.0 0.0
0.0 0.0 0.0 0.0 0.0 0.0 0.0 0.0
0.0 0.0 0.0 0.0 0.0 0.0 0.0 0.0
0.0 0.0 0.0 0.0 0.0 0.0 0.0 0.0
0.0 0.0 0.0 0.0 0.0 0.0 0.0 0.0
0.0 0.0 0.0 0.0 0.0 0.0 0.0 0.0
0.0 0.0 0.0 0.0 0.0 0.0 0.0 0.0
0.0 0.0 0.0 0.0 0.0 0.0 0.0 0.0
0.0 0.0 0.0 0.0 0.0 0.0 0.0 0.0
0.0 0.0 0.0 0.0 0.0 0.0 0.0 0.0
0.0 0.0 0.0 0.0 0.0 0.0 0.0 0.0
0.0 0.0 0.0 0.0 0.0 0.0 0.0 0.0
0.0 0.0 0.0 0.0 0.0 0.0 0.0 0.0
0.0 0.0 0.0 0.0 0.0 0.0 0.0 0.0
0.0 0.0 0.0 0.0 0.0 0.0 0.0 0.0
0.0 0.0 0.0 0.0 0.0 0.0 0.0 0.0
0.0 0.0 0.0 0.0 0.0 0.0 0.0 0.0
0.0 0.0 0.0 0.0 0.0 0.0 0.0 0.0
0.0 0.0 0.0 0.0 0.0 0.0 0.0 0.0
0.0 0.0 0.0 0.0 0.0 0.0 0.0 0.0
0.0 0.0 0.0 0.0 0.0 0.0 0.0 0.0
0.0 0.0 0.0 0.0 0.0 0.0 0.0 0.0
0.0 0.0 0.0 0.0 0.0 0.0 0.0 0.0
0.0 0.0 0.0 0.0 0.0 0.0 0.0 0.0
0.0 0.0 0.0 0.0 0.0 0.0 0.0 0.0
0.0 0.0 0.0 0.0 0.0 0.0 0.0 0.0
0.0 0.0 0.0 0.0 0.0 0.0 0.0 0.0
0.0 0.0 0.0 0.0 0.0 0.0 0.0 0.0
00000000: 8080 8080 8080 8080 8080 8080 8080 8080
00000010: 8080 8080 8080 8080 8080 8080 8080 8080
00000020: 8080 8080 8080 8080 8080 8080 8080 8080
00000030: 8080 8080 8080 8080 8080 8080 8080 8080
00000040: 8080 8080 8080 8080 8080 8080 8080 8080
00000050: 8080 8080 8080 8080 8080 8080 8080 8080
00000060: 8080 8080 8080 8080 8080 8080 8080 8080
00000070: 8080 8080 8080 8080 8080 8080 8080 8080
00000080: 8080 8080 8080 8080 8080 8080 8080 8080
00000090: 8080 8080 8080 8080 8080 8080 8080 8080
000000a0: 8080 8080 8080 8080 8080 8080 8080 8080
000000b0: 8080 8080 8080 8080 8080 8080 8080 8080
000000c0: 8080 8080 8080 8080 8080 8080 8080 8080
000000d0: 8080 8080 8080 8080 8080 8080 8080 8080
000000e0: 8080 8080 8080 8080 8080 8080 8080 8080
000000f0: 8080 8080 8080 8080 8080 8080 8080 8080

tfl.pseudo_qconst2 i1 [1, 4, 1, 32] scale=1.2583041 zero_point=-128
0.0 0.0 0.0 0.0 0.0 0.0 0.0 0.0
0.0 0.0 0.0 0.0 0.0 0.0 0.0 0.0
0.0 0.0 0.0 0.0 0.0 0.0 0.0 0.0
0.0 0.0 0.0 0.0 0.0 0.0 0.0 0.0
0.0 0.0 0.0 0.0 0.0 0.0 0.0 0.0
0.0 0.0 0.0 0.0 0.0 0.0 0.0 0.0
0.0 0.0 0.0 0.0 0.0 0.0 0.0 0.0
0.0 0.0 0.0 0.0 0.0 0.0 0.0 0.0
0.0 0.0 0.0 0.0 0.0 0.0 0.0 0.0
0.0 0.0 0.0 0.0 0.0 0.0 0.0 0.0
0.0 0.0 0.0 0.0 0.0 0.0 0.0 0.0
0.0 0.0 0.0 0.0 0.0 0.0 0.0 0.0
0.0 0.0 0.0 0.0 0.0 0.0 0.0 0.0
0.0 0.0 0.0 0.0 0.0 0.0 0.0 0.0
0.0 0.0 0.0 0.0 0.0 0.0 0.0 0.0
0.0 0.0 0.0 0.0 0.0 0.0 0.0 0.0
00000000: 8080 8080 8080 8080 8080 8080 8080 8080
00000010: 8080 8080 8080 8080 8080 8080 8080 8080
00000020: 8080 8080 8080 8080 8080 8080 8080 8080
00000030: 8080 8080 8080 8080 8080 8080 8080 8080
00000040: 8080 8080 8080 8080 8080 8080 8080 8080
00000050: 8080 8080 8080 8080 8080 8080 8080 8080
00000060: 8080 8080 8080 8080 8080 8080 8080 8080
00000070: 8080 8080 8080 8080 8080 8080 8080 8080

tfl.pseudo_qconst3 i1 [1, 2, 1, 40] scale=0.101960786 zero_point=-128
0.0 0.0 0.0 0.0 0.0 0.0 0.0 0.0
0.0 0.0 0.0 0.0 0.0 0.0 0.0 0.0
0.0 0.0 0.0 0.0 0.0 0.0 0.0 0.0
0.0 0.0 0.0 0.0 0.0 0.0 0.0 0.0
0.0 0.0 0.0 0.0 0.0 0.0 0.0 0.0
0.0 0.0 0.0 0.0 0.0 0.0 0.0 0.0
0.0 0.0 0.0 0.0 0.0 0.0 0.0 0.0
0.0 0.0 0.0 0.0 0.0 0.0 0.0 0.0
0.0 0.0 0.0 0.0 0.0 0.0 0.0 0.0
0.0 0.0 0.0 0.0 0.0 0.0 0.0 0.0
00000000: 8080 8080 8080 8080 8080 8080 8080 8080
00000010: 8080 8080 8080 8080 8080 8080 8080 8080
00000020: 8080 8080 8080 8080 8080 8080 8080 8080
00000030: 8080 8080 8080 8080 8080 8080 8080 8080
00000040: 8080 8080 8080 8080 8080 8080 8080 8080

tfl.pseudo_qconst4 i1 [1, 14, 1, 64] scale=0.023492012 zero_point=-128
0.0 0.0 0.0 0.0 0.0 0.0 0.0 0.0
0.0 0.0 0.0 0.0 0.0 0.0 0.0 0.0
0.0 0.0 0.0 0.0 0.0 0.0 0.0 0.0
0.0 0.0 0.0 0.0 0.0 0.0 0.0 0.0
0.0 0.0 0.0 0.0 0.0 0.0 0.0 0.0
0.0 0.0 0.0 0.0 0.0 0.0 0.0 0.0
0.0 0.0 0.0 0.0 0.0 0.0 0.0 0.0
0.0 0.0 0.0 0.0 0.0 0.0 0.0 0.0
0.0 0.0 0.0 0.0 0.0 0.0 0.0 0.0
0.0 0.0 0.0 0.0 0.0 0.0 0.0 0.0
0.0 0.0 0.0 0.0 0.0 0.0 0.0 0.0
0.0 0.0 0.0 0.0 0.0 0.0 0.0 0.0
0.0 0.0 0.0 0.0 0.0 0.0 0.0 0.0
0.0 0.0 0.0 0.0 0.0 0.0 0.0 0.0
0.0 0.0 0.0 0.0 0.0 0.0 0.0 0.0
0.0 0.0 0.0 0.0 0.0 0.0 0.0 0.0
0.0 0.0 0.0 0.0 0.0 0.0 0.0 0.0
0.0 0.0 0.0 0.0 0.0 0.0 0.0 0.0
0.0 0.0 0.0 0.0 0.0 0.0 0.0 0.0
0.0 0.0 0.0 0.0 0.0 0.0 0.0 0.0
0.0 0.0 0.0 0.0 0.0 0.0 0.0 0.0
0.0 0.0 0.0 0.0 0.0 0.0 0.0 0.0
0.0 0.0 0.0 0.0 0.0 0.0 0.0 0.0
0.0 0.0 0.0 0.0 0.0 0.0 0.0 0.0
0.0 0.0 0.0 0.0 0.0 0.0 0.0 0.0
0.0 0.0 0.0 0.0 0.0 0.0 0.0 0.0
0.0 0.0 0.0 0.0 0.0 0.0 0.0 0.0
0.0 0.0 0.0 0.0 0.0 0.0 0.0 0.0
0.0 0.0 0.0 0.0 0.0 0.0 0.0 0.0
0.0 0.0 0.0 0.0 0.0 0.0 0.0 0.0
0.0 0.0 0.0 0.0 0.0 0.0 0.0 0.0
0.0 0.0 0.0 0.0 0.0 0.0 0.0 0.0
00000000: 8080 8080 8080 8080 8080 8080 8080 8080
00000010: 8080 8080 8080 8080 8080 8080 8080 8080
00000020: 8080 8080 8080 8080 8080 8080 8080 8080
00000030: 8080 8080 8080 8080 8080 8080 8080 8080
00000040: 8080 8080 8080 8080 8080 8080 8080 8080
00000050: 8080 8080 8080 8080 8080 8080 8080 8080
00000060: 8080 8080 8080 8080 8080 8080 8080 8080
00000070: 8080 8080 8080 8080 8080 8080 8080 8080
00000080: 8080 8080 8080 8080 8080 8080 8080 8080
00000090: 8080 8080 8080 8080 8080 8080 8080 8080
000000a0: 8080 8080 8080 8080 8080 8080 8080 8080
000000b0: 8080 8080 8080 8080 8080 8080 8080 8080
000000c0: 8080 8080 8080 8080 8080 8080 8080 8080
000000d0: 8080 8080 8080 8080 8080 8080 8080 8080
000000e0: 8080 8080 8080 8080 8080 8080 8080 8080
000000f0: 8080 8080 8080 8080 8080 8080 8080 8080

tfl.pseudo_qconst5 i1 [1, 20, 1, 64] scale=0.032039396 zero_point=-128
0.0 0.0 0.0 0.0 0.0 0.0 0.0 0.0
0.0 0.0 0.0 0.0 0.0 0.0 0.0 0.0
0.0 0.0 0.0 0.0 0.0 0.0 0.0 0.0
0.0 0.0 0.0 0.0 0.0 0.0 0.0 0.0
0.0 0.0 0.0 0.0 0.0 0.0 0.0 0.0
0.0 0.0 0.0 0.0 0.0 0.0 0.0 0.0
0.0 0.0 0.0 0.0 0.0 0.0 0.0 0.0
0.0 0.0 0.0 0.0 0.0 0.0 0.0 0.0
0.0 0.0 0.0 0.0 0.0 0.0 0.0 0.0
0.0 0.0 0.0 0.0 0.0 0.0 0.0 0.0
0.0 0.0 0.0 0.0 0.0 0.0 0.0 0.0
0.0 0.0 0.0 0.0 0.0 0.0 0.0 0.0
0.0 0.0 0.0 0.0 0.0 0.0 0.0 0.0
0.0 0.0 0.0 0.0 0.0 0.0 0.0 0.0
0.0 0.0 0.0 0.0 0.0 0.0 0.0 0.0
0.0 0.0 0.0 0.0 0.0 0.0 0.0 0.0
0.0 0.0 0.0 0.0 0.0 0.0 0.0 0.0
0.0 0.0 0.0 0.0 0.0 0.0 0.0 0.0
0.0 0.0 0.0 0.0 0.0 0.0 0.0 0.0
0.0 0.0 0.0 0.0 0.0 0.0 0.0 0.0
0.0 0.0 0.0 0.0 0.0 0.0 0.0 0.0
0.0 0.0 0.0 0.0 0.0 0.0 0.0 0.0
0.0 0.0 0.0 0.0 0.0 0.0 0.0 0.0
0.0 0.0 0.0 0.0 0.0 0.0 0.0 0.0
0.0 0.0 0.0 0.0 0.0 0.0 0.0 0.0
0.0 0.0 0.0 0.0 0.0 0.0 0.0 0.0
0.0 0.0 0.0 0.0 0.0 0.0 0.0 0.0
0.0 0.0 0.0 0.0 0.0 0.0 0.0 0.0
0.0 0.0 0.0 0.0 0.0 0.0 0.0 0.0
0.0 0.0 0.0 0.0 0.0 0.0 0.0 0.0
0.0 0.0 0.0 0.0 0.0 0.0 0.0 0.0
0.0 0.0 0.0 0.0 0.0 0.0 0.0 0.0
00000000: 8080 8080 8080 8080 8080 8080 8080 8080
00000010: 8080 8080 8080 8080 8080 8080 8080 8080
00000020: 8080 8080 8080 8080 8080 8080 8080 8080
00000030: 8080 8080 8080 8080 8080 8080 8080 8080
00000040: 8080 8080 8080 8080 8080 8080 8080 8080
00000050: 8080 8080 8080 8080 8080 8080 8080 8080
00000060: 8080 8080 8080 8080 8080 8080 8080 8080
00000070: 8080 8080 8080 8080 8080 8080 8080 8080
00000080: 8080 8080 8080 8080 8080 8080 8080 8080
00000090: 8080 8080 8080 8080 8080 8080 8080 8080
000000a0: 8080 8080 8080 8080 8080 8080 8080 8080
000000b0: 8080 8080 8080 8080 8080 8080 8080 8080
000000c0: 8080 8080 8080 8080 8080 8080 8080 8080
000000d0: 8080 8080 8080 8080 8080 8080 8080 8080
000000e0: 8080 8080 8080 8080 8080 8080 8080 8080
000000f0: 8080 8080 8080 8080 8080 8080 8080 8080
