app/src/main/assets/wakeword/hey_jarvis.tflite (tflite, 52272 bytes, 16 tensors)

model/dense/MatMul i1 [1, 300] scale=0.0031106097 zero_point=0
-0.052880365 -0.21152146 -0.17730476 -0.30483976 0.17730476 -0.012442439 0.024884878 -0.23018512
-0.024884878 -0.15553048 0.20218962 -0.20841084 -0.21774268 -0.127535 -0.12131378 -0.3235034
-0.10887134 0.20841084 0.06843341 -0.23018512 -0.13375622 -0.10576073 -0.034216706 -0.19907902
-0.25818062 -0.0964289 -0.062212195 -0.24884878 -0.046659146 -0.24262756 0.11198195 -0.13375622
-0.11820317 -0.1306456 -0.034216706 -0.39504743 -0.07776524 -0.23951694 -0.062212195 -0.23018512
-0.24573816 -0.037327316 0.021774268 -0.2270745 -0.17108354 -0.0653228 -0.13686682 -0.21463206
-0.24884878 -0.046659146 -0.034216706 -0.13686682 -0.009331829 -0.23018512 -0.27373365 -0.027995488
-0.11509256 -0.1928578 0.15241988 0.0031106097 -0.31417158 0.07776524 -0.29550794 -0.09331829
-0.024884878 -0.1897472 0.11509256 0.027995488 -0.021774268 0.07465463 0.14308804 -0.10887134
-0.09953951 0.0964289 -0.18041536 -0.08709707 -0.2612912 0.17419414 -0.10576073 -0.031106098
-0.059101585 -0.11198195 0.018663658 -0.11820317 -0.20218962 -0.21774268 -0.07154402 -0.0062212194
-0.19907902 0.0062212194 0.20530024 -0.17108354 -0.20218962 -0.20530024 0.015553049 -0.23951694
0.018663658 -0.127535 -0.14619866 -0.1897472 -0.20841084 -0.10887134 -0.043548536 -0.17419414
0.043548536 -0.09020768 -0.040437926 -0.15553048 -0.25507 -0.1306456 -0.08087585 -0.15241988
0.062212195 -0.07776524 -0.0031106097 0.027995488 -0.10576073 -0.08398646 0.059101585 -0.012442439
-0.3203928 -0.015553049 -0.14619866 -0.13375622 0.018663658 0.018663658 -0.018663658 -0.034216706
-0.024884878 0.037327316 0.08087585 -0.034216706 0.0 -0.009331829 0.09953951 -0.16797292
-0.14619866 -0.015553049 0.046659146 -0.049769755 -0.1306456 -0.14930926 -0.015553049 -0.015553049
-0.17419414 -0.10887134 -0.009331829 -0.18352598 -0.15241988 -0.1306456 0.0964289 0.040437926
0.07465463 -0.12442439 -0.052880365 -0.08087585 0.052880365 -0.24573816 -0.009331829 0.009331829
0.09331829 -0.012442439 0.015553049 0.012442439 -0.11198195 0.0653228 -0.08398646 0.08709707
-0.19596842 -0.046659146 -0.0964289 0.037327316 0.07776524 -0.07154402 -0.19596842 0.012442439
-0.18041536 -0.16797292 0.031106098 -0.09020768 -0.20841084 -0.07465463 -0.11509256 0.052880365
0.14619866 -0.1897472 -0.031106098 -0.10887134 -0.17108354 -0.18041536 0.037327316 -0.11820317
-0.1586411 0.059101585 -0.040437926 0.027995488 -0.19596842 0.21774268 -0.21463206 0.052880365
-0.2861761 0.052880365 -0.21152146 -0.06843341 -0.10887134 -0.012442439 -0.0653228 0.052880365
0.09020768 -0.024884878 0.18663658 -0.062212195 0.037327316 0.034216706 0.13997744 -0.0062212194
-0.031106098 -0.14930926 -0.13997744 -0.16486232 -0.10887134 -0.07776524 -0.027995488 -0.052880365
-0.22085328 -0.18663658 -0.062212195 -0.18352598 0.059101585 0.07776524 -0.19596842 -0.08709707
-0.10887134 -0.043548536 0.055990975 -0.07465463 -0.11509256 -0.29861853 -0.018663658 -0.0653228
-0.0653228 -0.27373365 -0.23329572 -0.1928578 0.23329572 -0.23640634 -0.3514989 -0.09331829
-0.34838828 -0.07776524 0.14930926 0.17419414 -0.23018512 -0.27373365 0.062212195 -0.12131378
00000000: efbc c79e 39fc 08b6 f8ce 41bd bad7 d998
00000010: dd43 16b6 d5de f5c0 ade1 ecb0 f1b2 24d5
00000020: dad6 f581 e7b3 ecb6 b1f4 07b7 c9eb d4bb
00000030: b0f1 f5d4 fdb6 a8f7 dbc2 3101 9b19 a1e2
00000040: f8c3 2509 f918 2edd e01f c6e4 ac38 def6
00000050: eddc 06da bfba e9fe c002 42c9 bfbe 05b3
00000060: 06d7 d1c3 bddd f2c8 0ee3 f3ce aed6 e6cf
00000070: 14e7 ff09 dee5 13fc 99fb d1d5 0606 faf5
00000080: f80c 1af5 00fd 20ca d1fb 0ff0 d6d0 fbfb
00000090: c8dd fdc5 cfd6 1f0d 18d8 efe6 11b1 fd03
000000a0: 1efc 0504 dc15 e51c c1f1 e10c 19e9 c104
000000b0: c6ca 0ae3 bde8 db11 2fc3 f6dd c9c6 0cda
000000c0: cd13 f309 c146 bb11 a411 bcea ddfc eb11
000000d0: 1df8 3cec 0c0b 2dfe f6d0 d3cb dde7 f7ef
000000e0: b9c4 ecc5 1319 c1e4 ddf2 12e8 dba0 faeb
000000f0: eba8 b5c2 4bb4 8fe2 90e7 3038 b6a8 14d9

model/conv2d_4/Conv2D i1 [60, 1, 1, 60]
22 -37 53 50 17 70 -21 -127
-8 -58 11 -9 -27 47 28 28
41 2 20 7 48 -28 0 -7
27 -70 -61 2 48 -8 23 -75
-49 0 23 77 -26 20 -78 -3
19 15 25 -5 32 -49 -16 24
-30 8 16 16 4 48 30 15
4 -32 -42 79 -32 71 -80 35
-48 -56 35 31 0 61 42 -4
14 -40 30 34 -10 -127 66 98
-81 -20 -46 35 76 -31 -4 -42
61 0 -23 25 37 -48 5 44
19 -65 3 -43 64 41 -83 -34
56 124 -34 -6 34 -75 -92 -10
36 47 -33 92 -19 79 1 -2
76 38 -19 5 74 -46 -82 -90
-92 -4 -46 17 -104 37 -43 40
-112 -35 -85 -81 72 78 70 3
-6 -111 67 12 4 -85 18 -35
53 11 35 -105 -120 -62 41 -55
-50 115 1 -60 -51 -52 13 61
34 127 -15 -39 -84 -58 14 -77
-74 -59 108 -9 -22 22 103 40
17 38 -21 -79 0 -33 64 -87
18 -71 -73 -14 -41 74 48 32
25 63 -55 16 -52 -85 65 100
-53 -90 -57 13 -51 91 34 49
-51 -36 -125 -127 -39 55 -9 -34
16 65 -79 89 -34 94 29 -48
63 -18 45 31 -20 -72 -37 63
-63 -14 -33 -55 -60 -35 70 99
26 0 -42 83 -16 13 33 75
00000000: 16db 3532 1146 eb81 f8c6 0bf7 e52f 1c1c
00000010: 2902 1407 30e4 00f9 1bba c302 30f8 17b5
00000020: cf00 174d e614 b2fd 130f 19fb 20cf f018
00000030: e208 1010 0430 1e0f 04e0 d64f e047 b023
00000040: d0c8 231f 003d 2afc 0ed8 1e22 f681 4262
00000050: afec d223 4ce1 fcd6 3d00 e919 25d0 052c
00000060: 13bf 03d5 4029 adde 387c defa 22b5 a4f6
00000070: 242f df5c ed4f 01fe 4c26 ed05 4ad2 aea6
00000080: a4fc d211 9825 d528 90dd abaf 484e 4603
00000090: fa91 430c 04ab 12dd 350b 2397 88c2 29c9
000000a0: ce73 01c4 cdcc 0d3d 227f f1d9 acc6 0eb3
000000b0: b6c5 6cf7 ea16 6728 1126 ebb1 00df 40a9
000000c0: 12b9 b7f2 d74a 3020 193f c910 ccab 4164
000000d0: cba6 c70d cd5b 2231 cddc 8381 d937 f7de
000000e0: 1041 b159 de5e 1dd0 3fee 2d1f ecb8 db3f
000000f0: c1f2 dfc9 c4dd 4663 1a00 d653 f00d 214b

model/depthwise_conv2d_3/depthwise i1 [1, 21, 1, 60]
127 40 54 -127 37 -127 103 59
98 10 127 -21 9 94 -127 -87
-33 -43 -73 55 -65 16 31 -41
17 122 -58 127 -68 118 -49 -56
-127 17 -127 -122 -16 -22 -2 -96
-69 -25 17 13 92 29 -37 127
-19 -117 33 110 -127 76 -127 -85
-33 -47 127 -127 103 43 38 -85
69 -82 127 73 106 30 81 3
39 88 -86 -37 -14 15 -127 72
75 -7 -90 -28 4 44 -6 100
-11 127 -81 -127 -107 54 -89 -89
16 -39 4 -77 -127 -18 -7 49
-20 -12 -18 22 -32 -111 43 73
-71 115 -57 -29 -29 -10 61 -110
28 24 74 -105 53 -79 77 77
66 18 86 -2 -14 9 -5 -2
10 3 -101 34 25 -5 -13 -46
10 42 -7 61 -6 97 -38 -91
-34 40 -3 -51 14 -6 10 -70
-101 -34 14 1 -27 -78 -25 38
2 -55 55 3 -33 94 21 25
-4 -37 40 -31 20 -2 62 -85
29 -68 124 103 124 83 49 -16
40 9 -9 -1 41 29 -27 39
47 20 -79 -43 21 32 52 48
13 78 -30 -102 47 1 15 -16
-27 27 37 -56 -69 -21 -19 -15
78 -99 -6 12 3 -65 42 24
-13 23 19 29 9 -30 12 -32
17 23 36 -99 3 -52 64 91
75 34 31 -7 28 -37 -39 24
00000000: 7f28 3681 2581 673b 620a 7feb 095e 81a9
00000010: dfd5 b737 bf10 1fd7 117a c67f bc76 cfc8
00000020: 8111 8186 f0ea fea0 bbe7 110d 5c1d db7f
00000030: ed8b 216e 814c 81ab dfd1 7f81 672b 26ab
00000040: 45ae 7f49 6a1e 5103 2758 aadb f20f 8148
00000050: 4bf9 a6e4 042c fa64 f57f af81 9536 a7a7
00000060: 10d9 04b3 81ee f931 ecf4 ee16 e091 2b49
00000070: b973 c7e3 e3f6 3d92 1c18 4a97 35b1 4d4d
00000080: 4212 56fe f209 fbfe 0a03 9b22 19fb f3d2
00000090: 0a2a f93d fa61 daa5 de28 fdcd 0efa 0aba
000000a0: 9bde 0e01 e5b2 e726 02c9 3703 df5e 1519
000000b0: fcdb 28e1 14fe 3eab 1dbc 7c67 7c53 31f0
000000c0: 2809 f7ff 291d e527 2f14 b1d5 1520 3430
000000d0: 0d4e e29a 2f01 0ff0 e51b 25c8 bbeb edf1
000000e0: 4e9d fa0c 03bf 2a18 f317 131d 09e2 0ce0
000000f0: 1117 249d 03cc 405b 4b22 1ff9 1cdb d918

model/conv2d_3/Conv2D i1 [60, 1, 1, 60]
-6 75 -127 18 -42 -15 -97 19
0 79 64 -73 59 -64 -35 -92
-53 -65 55 -42 -32 99 -64 28
-12 -18 -22 5 110 13 -53 -26
-49 51 -29 -6 -17 4 -42 28
58 -51 -108 -64 88 -25 61 -47
31 -61 -9 -108 -100 79 75 -35
-123 19 -57 104 71 -3 3 79
-102 46 -8 51 88 53 23 12
57 74 -41 -24 11 -39 77 43
78 -85 54 -93 14 56 -9 -3
-21 -58 18 -84 -116 -39 101 10
65 99 -49 -89 23 8 -127 58
73 -44 -96 -80 123 -18 -26 -17
65 12 -9 -14 -95 59 -60 33
6 73 -70 14 47 -26 16 -26
88 81 26 -8 42 -40 1 -45
-127 -8 -11 -44 56 -77 88 -94
16 20 46 73 -27 46 8 26
17 102 81 -58 91 30 -36 -37
81 -107 9 3 -14 -7 -6 21
60 29 -41 1 -1 104 -121 89
-105 71 40 -42 27 -9 7 42
35 98 66 50 35 75 22 22
111 -71 29 24 50 -59 -66 55
-37 127 76 0 -15 -125 -1 103
-4 122 30 -12 -33 25 40 -39
-16 -26 -80 27 -54 56 1 38
112 3 20 -17 -57 2 93 6
51 67 31 36 57 -1 -20 30
127 20 -50 80 50 -46 40 66
-101 41 47 16 39 -4 44 15
00000000: fa4b 8112 d6f1 9f13 004f 40b7 3bc0 dda4
00000010: cbbf 37d6 e063 c01c f4ee ea05 6e0d cbe6
00000020: cf33 e3fa ef04 d61c 3acd 94c0 58e7 3dd1
00000030: 1fc3 f794 9c4f 4bdd 8513 c768 47fd 034f
00000040: 9a2e f833 5835 170c 394a d7e8 0bd9 4d2b
00000050: 4eab 36a3 0e38 f7fd ebc6 12ac 8cd9 650a
00000060: 4163 cfa7 1708 813a 49d4 a0b0 7bee e6ef
00000070: 410c f7f2 a13b c421 0649 ba0e 2fe6 10e6
00000080: 5851 1af8 2ad8 01d3 81f8 f5d4 38b3 58a2
00000090: 1014 2e49 e52e 081a 1166 51c6 5b1e dcdb
000000a0: 5195 0903 f2f9 fa15 3c1d d701 ff68 8759
000000b0: 9747 28d6 1bf7 072a 2362 4232 234b 1616
000000c0: 6fb9 1d18 32c5 be37 db7f 4c00 f183 ff67
000000d0: fc7a 1ef4 df19 28d9 f0e6 b01b ca38 0126
000000e0: 7003 14ef c702 5d06 3343 1f24 39ff ec1e
000000f0: 7f14 ce50 32d2 2842 9b29 2f10 27fc 2c0f

model/depthwise_conv2d_2/depthwise i1 [1, 13, 1, 60]
29 -26 -69 -45 127 40 47 100
-124 -18 109 -106 105 -53 27 -127
102 -127 5 65 -106 127 3 127
60 -83 86 127 -62 113 -26 -4
-107 77 -2 127 -67 95 127 -127
47 47 -127 -41 127 96 -16 79
20 -28 -127 -67 62 -71 73 82
-127 -41 -33 112 -2 -12 -14 -58
119 86 68 57 -26 35 50 -127
61 -96 85 -66 110 -53 -48 65
64 11 10 88 39 -88 127 79
-90 116 -59 9 -127 60 17 65
32 127 76 -109 17 49 -94 -51
82 90 10 53 -57 27 -103 2
111 36 82 47 -65 10 -52 124
9 -44 -4 37 57 81 101 25
24 62 -12 -28 78 -127 60 -22
125 -80 -28 127 9 -4 19 94
71 -73 67 -22 -115 123 -24 -32
-68 20 -8 -64 85 122 0 -55
33 60 -113 -20 80 96 -10 -38
-87 -58 -32 -17 76 -37 -34 -28
-5 52 109 46 27 -52 19 122
-11 95 87 127 22 127 -127 -17
127 -100 127 -2 63 25 -95 68
34 -64 18 13 84 -42 28 -95
-25 90 -12 -81 -37 8 12 -60
50 63 -56 -50 26 58 -66 -35
99 104 17 -8 -69 -91 -64 87
2 -59 -7 -11 -26 34 34 2
15 -38 -8 -60 -40 127 7 101
91 72 -94 76 97 -97 59 46
00000000: 1de6 bbd3 7f28 2f64 84ee 6d96 69cb 1b81
00000010: 6681 0541 967f 037f 3cad 567f c271 e6fc
00000020: 954d fe7f bd5f 7f81 2f2f 81d7 7f60 f04f
00000030: 14e4 81bd 3eb9 4952 81d7 df70 fef4 f2c6
00000040: 7756 4439 e623 3281 3da0 55be 6ecb d041
00000050: 400b 0a58 27a8 7f4f a674 c509 813c 1141
00000060: 207f 4c93 1131 a2cd 525a 0a35 c71b 9902
00000070: 6f24 522f bf0a cc7c 09d4 fc25 3951 6519
00000080: 183e f4e4 4e81 3cea 7db0 e47f 09fc 135e
00000090: 47b7 43ea 8d7b e8e0 bc14 f8c0 557a 00c9
000000a0: 213c 8fec 5060 f6da a9c6 e0ef 4cdb dee4
000000b0: fb34 6d2e 1bcc 137a f55f 577f 167f 81ef
000000c0: 7f9c 7ffe 3f19 a144 22c0 120d 54d6 1ca1
000000d0: e75a f4af db08 0cc4 323f c8ce 1a3a bedd
000000e0: 6368 11f8 bba5 c057 02c5 f9f5 e622 2202
000000f0: 0fda f8c4 d87f 0765 5b48 a24c 619f 3b2e

model/conv2d_2/Conv2D i1 [60, 1, 1, 60]
-107 38 45 -56 -116 -21 -48 -32
5 18 19 127 -2 -28 -14 -31
29 80 -11 -117 89 -84 -60 -5
-18 -14 -16 27 48 85 -59 38
-23 -6 41 -37 66 -27 57 -49
-10 4 37 36 -50 8 109 12
41 -36 -38 17 73 -50 78 98
77 51 -26 18 -67 37 43 31
-17 41 27 -29 32 45 25 25
-35 -30 -44 38 29 -13 -17 21
-47 -13 -45 -29 15 2 -86 -10
-19 65 58 25 -37 -56 29 43
74 -49 66 18 26 -70 -4 -127
-48 87 60 62 53 -34 59 9
-3 -107 124 17 34 15 52 -11
-63 52 -63 16 -26 7 92 -39
-28 -51 38 8 -6 29 69 14
-23 28 50 49 36 40 6 15
-70 -22 32 -1 46 -12 -18 64
-11 27 66 11 66 -49 41 6
17 36 -60 48 49 33 -30 -127
48 -82 9 58 61 7 59 2
40 -1 -4 2 90 22 98 -43
24 125 5 -74 -27 1 38 10
46 -73 27 127 -12 -21 -48 -45
92 84 -79 26 7 -80 -4 -82
14 30 29 -36 -55 50 -32 -20
4 30 -18 41 -28 82 -18 -15
-6 -93 -59 -42 8 88 9 32
60 40 0 78 35 -31 -4 9
58 -107 82 -70 -60 39 -7 -3
10 11 -45 49 43 -26 14 34
00000000: 9526 2dc8 8ceb d0e0 0512 137f fee4 f2e1
00000010: 1d50 f58b 59ac c4fb eef2 f01b 3055 c526
00000020: e9fa 29db 42e5 39cf f604 2524 ce08 6d0c
00000030: 29dc da11 49ce 4e62 4d33 e612 bd25 2b1f
00000040: ef29 1be3 202d 1919 dde2 d426 1df3 ef15
00000050: d1f3 d3e3 0f02 aaf6 ed41 3a19 dbc8 1d2b
00000060: 4acf 4212 1aba fc81 d057 3c3e 35de 3b09
00000070: fd95 7c11 220f 34f5 c134 c110 e607 5cd9
00000080: e4cd 2608 fa1d 450e e91c 3231 2428 060f
00000090: baea 20ff 2ef4 ee40 f51b 420b 42cf 2906
000000a0: 1124 c430 3121 e281 30ae 093a 3d07 3b02
000000b0: 28ff fc02 5a16 62d5 187d 05b6 e501 260a
000000c0: 2eb7 1b7f f4eb d0d3 5c54 b11a 07b0 fcae
000000d0: 0e1e 1ddc c932 e0ec 041e ee29 e452 eef1
000000e0: faa3 c5d6 0858 0920 3c28 004e 23e1 fc09
000000f0: 3a95 52ba c427 f9fd 0a0b d331 2be6 0e22

model/depthwise_conv2d_1/depthwise i1 [1, 9, 1, 60]
54 -127 -9 -18 -127 -18 -127 125
-3 46 88 -44 63 127 78 -27
-57 124 -55 -56 -127 -28 -4 -26
-70 108 -104 -44 105 -84 127 3
86 -23 -99 127 28 -118 -2 -32
-127 -116 -31 -77 109 -66 -12 -100
-16 99 52 127 -127 36 1 -31
-65 51 11 -122 27 58 -52 -29
-20 -41 -123 20 24 -2 38 -72
-6 50 61 -42 -127 34 -43 -94
-59 -34 -84 -89 9 88 -59 -13
127 -48 67 17 29 -51 4 74
-1 -61 11 -27 -63 29 -44 -50
49 -59 26 -127 125 127 113 46
-31 11 -3 27 -99 -24 49 -127
18 121 -77 -36 73 14 -63 52
-55 -3 70 -127 -26 42 54 -24
-61 85 2 -75 -52 29 -63 -127
84 25 -51 41 49 -64 33 -3
46 50 76 26 -29 13 -69 -46
-32 -74 -4 -37 73 9 -19 96
33 27 27 13 -23 78 8 27
-10 37 24 -109 102 9 -5 -81
-19 37 -76 -127 -39 74 127 -123
-87 104 17 -5 99 111 42 57
-27 -53 -43 -40 127 -5 -35 -25
49 -64 30 -16 43 15 27 36
16 -13 -87 18 -78 -97 98 67
-49 37 1 86 -72 7 67 26
-23 70 1 36 -35 55 -17 -3
107 -20 -54 16 13 -32 11 -112
62 85 101 -31 -13 -55 61 -7
00000000: 3681 f7ee 81ee 817d fd2e 58d4 3f7f 4ee5
00000010: c77c c9c8 81e4 fce6 ba6c 98d4 69ac 7f03
00000020: 56e9 9d7f 1c8a fee0 818c e1b3 6dbe f49c
00000030: f063 347f 8124 01e1 bf33 0b86 1b3a cce3
00000040: ecd7 8514 18fe 26b8 fa32 3dd6 8122 d5a2
00000050: c5de aca7 0958 c5f3 7fd0 4311 1dcd 044a
00000060: ffc3 0be5 c11d d4ce 31c5 1a81 7d7f 712e
00000070: e10b fd1b 9de8 3181 1279 b3dc 490e c134
00000080: c9fd 4681 e62a 36e8 c355 02b5 cc1d c181
00000090: 5419 cd29 31c0 21fd 2e32 4c1a e30d bbd2
000000a0: e0b6 fcdb 4909 ed60 211b 1b0d e94e 081b
000000b0: f625 1893 6609 fbaf ed25 b481 d94a 7f85
000000c0: a968 11fb 636f 2a39 e5cb d5d8 7ffb dde7
000000d0: 31c0 1ef0 2b0f 1b24 10f3 a912 b29f 6243
000000e0: cf25 0156 b807 431a e946 0124 dd37 effd
000000f0: 6bec ca10 0de0 0b90 3e55 65e1 f3c9 3df9

model/conv2d_1/Conv2D i1 [60, 1, 1, 30]
42 10 45 27 96 6 44 27
-28 -59 -13 24 0 10 -59 -14
-10 -52 -83 -69 -15 82 -1 47
127 -78 -65 -42 -31 -33 -59 -94
48 -60 -96 -127 -49 8 -68 -34
123 -18 4 -2 86 57 -25 -5
17 -26 -46 -37 -92 67 84 -64
-24 -93 -31 72 7 13 12 59
-41 48 22 -31 -12 26 -37 95
-7 -4 127 50 -71 32 28 -63
36 -1 -66 -9 25 64 -26 21
-23 -11 6 35 39 119 -13 84
-23 -86 -10 48 -12 -99 -50 -65
0 -44 -88 -73 -47 -31 -48 50
127 -83 -30 70 -118 87 -24 23
72 2 -116 67 57 42 -20 127
34 30 36 4 -9 -3 52 -15
24 -35 -30 -71 113 -34 -42 -1
-60 -69 88 0 -47 41 -46 2
12 -26 78 127 8 -60 -6 11
-8 -4 -40 -53 81 39 -12 -34
4 -85 11 5 -8 -34 33 -4
33 39 11 18 -73 28 -28 -44
85 38 -55 -19 68 -101 32 -39
90 15 -24 -51 21 29 -33 -74
66 104 125 -127 -48 -7 -125 51
-53 -59 74 43 47 34 18 -24
-39 2 45 -69 14 -7 -10 57
127 64 -55 5 17 -35 50 26
17 50 -90 16 -10 -117 55 -78
-59 8 -1 -16 58 68 -82 -119
62 31 2 127 -50 -45 -118 63
00000000: 2a0a 2d1b 6006 2c1b e4c5 f318 000a c5f2
00000010: f6cc adbb f152 ff2f 7fb2 bfd6 e1df c5a2
00000020: 30c4 a081 cf08 bcde 7bee 04fe 5639 e7fb
00000030: 11e6 d2db a443 54c0 e8a3 e148 070d 0c3b
00000040: d730 16e1 f41a db5f f9fc 7f32 b920 1cc1
00000050: 24ff bef7 1940 e615 e9f5 0623 2777 f354
00000060: e9aa f630 f49d cebf 00d4 a8b7 d1e1 d032
00000070: 7fad e246 8a57 e817 4802 8c43 392a ec7f
00000080: 221e 2404 f7fd 34f1 18dd e2b9 71de d6ff
00000090: c4bb 5800 d129 d202 0ce6 4e7f 08c4 fa0b
000000a0: f8fc d8cb 5127 f4de 04ab 0b05 f8de 21fc
000000b0: 2127 0b12 b71c e4d4 5526 c9ed 449b 20d9
000000c0: 5a0f e8cd 151d dfb6 4268 7d81 d0f9 8333
000000d0: cbc5 4a2b 2f22 12e8 d902 2dbb 0ef9 f639
000000e0: 7f40 c905 11dd 321a 1132 a610 f68b 37b2
000000f0: c508 fff0 3a44 ae89 3e1f 027f ced3 8a3f

model/depthwise_conv2d/depthwise1 i1 [1, 5, 1, 30]
-78 -7 -105 -92 41 -97 127 127
11 -127 -14 -31 90 -127 64 -127
79 103 -62 -74 36 18 127 13
93 11 -118 27 19 -119 86 -36
61 -8 40 -105 78 67 70 -101
-17 -77 119 -89 41 -18 -125 127
-47 -127 -4 -73 79 127 38 -54
86 -2 -11 -110 -127 100 -16 -110
8 56 -25 -70 -33 82 -64 66
117 -13 -127 -122 100 32 -127 -30
92 92 -45 79 113 -93 127 -97
-41 127 -15 47 -72 -127 115 91
-2 -51 -77 121 -38 98 88 -55
-32 -124 -81 -24 -106 38 33 -32
-103 28 127 -127 -21 -21 127 -28
-94 127 127 -55 127 127 -64 -32
-127 93 -127 -127 127 42 70 -77
127 119 -43 -111 127 -127 -86 -5
66 -37 -18 -127 -77 95
00000000: b2f9 97a4 299f 7f7f 0b81 f2e1 5a81 4081
00000010: 4f67 c2b6 2412 7f0d 5d0b 8a1b 1389 56dc
00000020: 3df8 2897 4e43 469b efb3 77a7 29ee 837f
00000030: d181 fcb7 4f7f 26ca 56fe f592 8164 f092
00000040: 0838 e7ba df52 c042 75f3 8186 6420 81e2
00000050: 5c5c d34f 71a3 7f9f d77f f12f b881 735b
00000060: fecd b379 da62 58c9 e084 afe8 9626 21e0
00000070: 991c 7f81 ebeb 7fe4 a27f 7fc9 7f7f c0e0
00000080: 815d 8181 7f2a 46b3 7f77 d591 7f81 aafb
00000090: 42db ee81 b35f

model/stream/conv2d/Conv2D i1 [30, 5, 1, 40]
-79 -58 -1 50 21 20 -17 44
20 -14 2 19 -13 -12 3 8
20 37 -14 53 15 60 0 10
30 28 7 13 -15 -25 20 8
14 9 -28 0 -8 18 -25 -28
-92 -84 21 44 9 31 -33 4
9 32 -22 -9 -5 -2 40 -6
-30 34 13 47 75 21 35 18
11 5 -3 -24 -20 15 8 14
21 4 -9 19 -28 19 -47 -78
-127 -33 -7 29 42 -2 -66 33
2 8 0 30 -33 22 -3 38
15 24 20 30 80 76 20 63
49 33 5 -12 -6 7 9 -4
-22 14 -47 9 1 25 -24 -24
-85 -22 15 21 5 21 -32 38
-8 -5 -36 -8 -72 10 -1 -6
23 25 -30 -14 46 36 53 55
21 43 -23 22 -11 -1 -18 -6
-6 31 -52 -10 -35 -9 -59 -53
-93 -55 23 5 8 25 -53 -4
9 7 -5 28 -58 -26 -38 30
-50 -1 -22 -25 18 36 15 53
45 29 40 -15 -6 0 0 16
-57 -12 -24 -28 0 43 -35 -84
89 -6 24 -73 31 -105 64 90
86 -3 39 52 65 2 23 -12
46 -16 -31 -36 17 3 3 59
124 68 -19 13 98 45 86 -14
22 4 23 41 58 -49 41 101
42 22 39 25 89 11 79 0
18 -18 56 65 0 19 75 31
00000000: b1c6 ff32 1514 ef2c 14f2 0213 f3f4 0308
00000010: 1425 f235 0f3c 000a 1e1c 070d f1e7 1408
00000020: 0e09 e400 f812 e7e4 a4ac 152c 091f df04
00000030: 0920 eaf7 fbfe 28fa e222 0d2f 4b15 2312
00000040: 0b05 fde8 ec0f 080e 1504 f713 e413 d1b2
00000050: 81df f91d 2afe be21 0208 001e df16 fd26
00000060: 0f18 141e 504c 143f 3121 05f4 fa07 09fc
00000070: ea0e d109 0119 e8e8 abea 0f15 0515 e026
00000080: f8fb dcf8 b80a fffa 1719 e2f2 2e24 3537
00000090: 152b e916 f5ff eefa fa1f ccf6 ddf7 c5cb
000000a0: a3c9 1705 0819 cbfc 0907 fb1c c6e6 da1e
000000b0: ceff eae7 1224 0f35 2d1d 28f1 fa00 0010
000000c0: c7f4 e8e4 002b ddac 59fa 18b7 1f97 405a
000000d0: 56fd 2734 4102 17f4 2ef0 e1dc 1103 033b
000000e0: 7c44 ed0d 622d 56f2 1604 1729 3acf 2965
000000f0: 2a16 2719 590b 4f00 12ee 3841 0013 4b1f

tfl.pseudo_qconst i1 [1, 4, 1, 60] scale=0.028342158 zero_point=-128
0.0 0.0 0.0 0.0 0.0 0.0 0.0 0.0
0.0 0.0 0.0 0.0 0.0 0.0 0.0 0.0
0.0 0.0 0.0 0.0 0.0 0.0 0.0 0.0
0.0 0.0 0.0 0.0 0.0 0.0 0.0 0.0
0.0 0.0 0.0 0.0 0.0 0.0 0.0 0.0
0.0 0.0 0.0 0.0 0.0 0.0 0.0 0.0
0.0 0.0 0.0 0.0 0.0 0.0 0.0 0.0
0.0 0.0 0.0 0.0 0.0 0.0 0.0 0.0
0.0 0.0 0.0 0.0 0.0 0.0 0.0 0.0
0.0 0.0 0.0 0.0 0.0 0.0 0.0 0.0
0.0 0.0 0.0 0.0 0.0 0.0 0.0 0.0
0.0 0.0 0.0 0.0 0.0 0.0 0.0 0.0
0.0 0.0 0.0 0.0 0.0 0.0 0.0 0.0
0.0 0.0 0.0 0.0 0.0 0.0 0.0 0.0
0.0 0.0 0.0 0.0 0.0 0.0 0.0 0.0
0.0 0.0 0.0 0.0 0.0 0.0 0.0 0.0
0.0 0.0 0.0 0.0 0.0 0.0 0.0 0.0
0.0 0.0 0.0 0.0 0.0 0.0 0.0 0.0
0.0 0.0 0.0 0.0 0.0 0.0 0.0 0.0
0.0 0.0 0.0 0.0 0.0 0.0 0.0 0.0
0.0 0.0 0.0 0.0 0.0 0.0 0.0 0.0
0.0 0.0 0.0 0.0 0.0 0.0 0.0 0.0
0.0 0.0 0.0 0.0 0.0 0.0 0.0 0.0
0.0 0.0 0.0 0.0 0.0 0.0 0.0 0.0
0.0 0.0 0.0 0.0 0.0 0.0 0.0 0.0
0.0 0.0 0.0 0.0 0.0 0.0 0.0 0.0
0.0 0.0 0.0 0.0 0.0 0.0 0.0 0.0
0.0 0.0 0.0 0.0 0.0 0.0 0.0 0.0
0.0 0.0 0.0 0.0 0.0 0.0 0.0 0.0
0.0 0.0 0.0 0.0 0.0 0.0 0.0 0.0
00000000: 8080 8080 8080 8080 8080 8080 8080 8080
00000010: 8080 8080 8080 8080 8080 8080 8080 8080
00000020: 8080 8080 8080 8080 8080 8080 8080 8080
00000030: 8080 8080 8080 8080 8080 8080 8080 8080
00000040: 8080 8080 8080 8080 8080 8080 8080 8080
00000050: 8080 8080 8080 8080 8080 8080 8080 8080
00000060: 8080 8080 8080 8080 8080 8080 8080 8080
00000070: 8080 8080 8080 8080 8080 8080 8080 8080
00000080: 8080 8080 8080 8080 8080 8080 8080 8080
00000090: 8080 8080 8080 8080 8080 8080 8080 8080
000000a0: 8080 8080 8080 8080 8080 8080 8080 8080
000000b0: 8080 8080 8080 8080 8080 8080 8080 8080
000000c0: 8080 8080 8080 8080 8080 8080 8080 8080
000000d0: 8080 8080 8080 8080 8080 8080 8080 8080
000000e0: 8080 8080 8080 8080 8080 8080 8080 8080

tfl.pseudo_qconst1 i1 [1, 20, 1, 60] scale=0.039585847 zero_point=-128
0.0 0.0 0.0 0.0 0.0 0.0 0.0 0.0
0.0 0.0 0.0 0.0 0.0 0.0 0.0 0.0
0.0 0.0 0.0 0.0 0.0 0.0 0.0 0.0
0.0 0.0 0.0 0.0 0.0 0.0 0.0 0.0
0.0 0.0 0.0 0.0 0.0 0.0 0.0 0.0
0.0 0.0 0.0 0.0 0.0 0.0 0.0 0.0
0.0 0.0 0.0 0.0 0.0 0.0 0.0 0.0
0.0 0.0 0.0 0.0 0.0 0.0 0.0 0.0
0.0 0.0 0.0 0.0 0.0 0.0 0.0 0.0
0.0 0.0 0.0 0.0 0.0 0.0 0.0 0.0
0.0 0.0 0.0 0.0 0.0 0.0 0.0 0.0
0.0 0.0 0.0 0.0 0.0 0.0 0.0 0.0
0.0 0.0 0.0 0.0 0.0 0.0 0.0 0.0
0.0 0.0 0.0 0.0 0.0 0.0 0.0 0.0
0.0 0.0 0.0 0.0 0.0 0.0 0.0 0.0
0.0 0.0 0.0 0.0 0.0 0.0 0.0 0.0
0.0 0.0 0.0 0.0 0.0 0.0 0.0 0.0
0.0 0.0 0.0 0.0 0.0 0.0 0.0 0.0
0.0 0.0 0.0 0.0 0.0 0.0 0.0 0.0
0.0 0.0 0.0 0.0 0.0 0.0 0.0 0.0
0.0 0.0 0.0 0.0 0.0 0.0 0.0 0.0
0.0 0.0 0.0 0.0 0.0 0.0 0.0 0.0
0.0 0.0 0.0 0.0 0.0 0.0 0.0 0.0
0.0 0.0 0.0 0.0 0.0 0.0 0.0 0.0
0.0 0.0 0.0 0.0 0.0 0.0 0.0 0.0
0.0 0.0 0.0 0.0 0.0 0.0 0.0 0.0
0.0 0.0 0.0 0.0 0.0 0.0 0.0 0.0
0.0 0.0 0.0 0.0 0.0 0.0 0.0 0.0
0.0 0.0 0.0 0.0 0.0 0.0 0.0 0.0
0.0 0.0 0.0 0.0 0.0 0.0 0.0 0.0
0.0 0.0 0.0 0.0 0.0 0.0 0.0 0.0
0.0 0.0 0.0 0.0 0.0 0.0 0.0 0.0
00000000: 8080 8080 8080 8080 8080 8080 8080 8080
00000010: 8080 8080 8080 8080 8080 8080 8080 8080
00000020: 8080 8080 8080 8080 8080 8080 8080 8080
00000030: 8080 8080 8080 8080 8080 8080 8080 8080
00000040: 8080 8080 8080 8080 8080 8080 8080 8080
00000050: 8080 8080 8080 8080 8080 8080 8080 8080
00000060: 8080 8080 8080 8080 8080 8080 8080 8080
00000070: 8080 8080 8080 8080 8080 8080 8080 8080
00000080: 8080 8080 8080 8080 8080 8080 8080 8080
00000090: 8080 8080 8080 8080 8080 8080 8080 8080
000000a0: 8080 8080 8080 8080 8080 8080 8080 8080
000000b0: 8080 8080 8080 8080 8080 8080 8080 8080
000000c0: 8080 8080 8080 8080 8080 8080 8080 8080
000000d0: 8080 8080 8080 8080 8080 8080 8080 8080
000000e0: 8080 8080 8080 8080 8080 8080 8080 8080
000000f0: 8080 8080 8080 8080 8080 8080 8080 8080

tfl.pseudo_qconst2 i1 [1, 12, 1, 60] scale=0.0430987 zero_point=-128
0.0 0.0 0.0 0.0 0.0 0.0 0.0 0.0
0.0 0.0 0.0 0.0 0.0 0.0 0.0 0.0
0.0 0.0 0.0 0.0 0.0 0.0 0.0 0.0
0.0 0.0 0.0 0.0 0.0 0.0 0.0 0.0
0.0 0.0 0.0 0.0 0.0 0.0 0.0 0.0
0.0 0.0 0.0 0.0 0.0 0.0 0.0 0.0
0.0 0.0 0.0 0.0 0.0 0.0 0.0 0.0
0.0 0.0 0.0 0.0 0.0 0.0 0.0 0.0
0.0 0.0 0.0 0.0 0.0 0.0 0.0 0.0
0.0 0.0 0.0 0.0 0.0 0.0 0.0 0.0
0.0 0.0 0.0 0.0 0.0 0.0 0.0 0.0
0.0 0.0 0.0 0.0 0.0 0.0 0.0 0.0
0.0 0.0 0.0 0.0 0.0 0.0 0.0 0.0
0.0 0.0 0.0 0.0 0.0 0.0 0.0 0.0
0.0 0.0 0.0 0.0 0.0 0.0 0.0 0.0
0.0 0.0 0.0 0.0 0.0 0.0 0.0 0.0
0.0 0.0 0.0 0.0 0.0 0.0 0.0 0.0
0.0 0.0 0.0 0.0 0.0 0.0 0.0 0.0
0.0 0.0 0.0 0.0 0.0 0.0 0.0 0.0
0.0 0.0 0.0 0.0 0.0 0.0 0.0 0.0
0.0 0.0 0.0 0.0 0.0 0.0 0.0 0.0
0.0 0.0 0.0 0.0 0.0 0.0 0.0 0.0
0.0 0.0 0.0 0.0 0.0 0.0 0.0 0.0
0.0 0.0 0.0 0.0 0.0 0.0 0.0 0.0
0.0 0.0 0.0 0.0 0.0 0.0 0.0 0.0
0.0 0.0 0.0 0.0 0.0 0.0 0.0 0.0
0.0 0.0 0.0 0.0 0.0 0.0 0.0 0.0
0.0 0.0 0.0 0.0 0.0 0.0 0.0 0.0
0.0 0.0 0.0 0.0 0.0 0.0 0.0 0.0
0.0 0.0 0.0 0.0 0.0 0.0 0.0 0.0
0.0 0.0 0.0 0.0 0.0 0.0 0.0 0.0
0.0 0.0 0.0 0.0 0.0 0.0 0.0 0.0
00000000: 8080 8080 8080 8080 8080 8080 8080 8080
00000010: 8080 8080 8080 8080 8080 8080 8080 8080
00000020: 8080 8080 8080 8080 8080 8080 8080 8080
00000030: 8080 8080 8080 8080 8080 8080 8080 8080
00000040: 8080 8080 8080 8080 8080 8080 8080 8080
00000050: 8080 8080 8080 8080 8080 8080 8080 8080
00000060: 8080 8080 8080 8080 8080 8080 8080 8080
00000070: 8080 8080 8080 8080 8080 8080 8080 8080
00000080: 8080 8080 8080 8080 8080 8080 8080 8080
00000090: 8080 8080 8080 8080 8080 8080 8080 8080
000000a0: 8080 8080 8080 8080 8080 8080 8080 8080
000000b0: 8080 8080 8080 8080 8080 8080 8080 8080
000000c0: 8080 8080 8080 8080 8080 8080 8080 8080
000000d0: 8080 8080 8080 8080 8080 8080 8080 8080
000000e0: 8080 8080 8080 8080 8080 8080 8080 8080
000000f0: 8080 8080 8080 8080 8080 8080 8080 8080

tfl.pseudo_qconst3 i1 [1, 8, 1, 60] scale=0.040905718 zero_point=-128
0.0 0.0 0.0 0.0 0.0 0.0 0.0 0.0
0.0 0.0 0.0 0.0 0.0 0.0 0.0 0.0
0.0 0.0 0.0 0.0 0.0 0.0 0.0 0.0
0.0 0.0 0.0 0.0 0.0 0.0 0.0 0.0
0.0 0.0 0.0 0.0 0.0 0.0 0.0 0.0
0.0 0.0 0.0 0.0 0.0 0.0 0.0 0.0
0.0 0.0 0.0 0.0 0.0 0.0 0.0 0.0
0.0 0.0 0.0 0.0 0.0 0.0 0.0 0.0
0.0 0.0 0.0 0.0 0.0 0.0 0.0 0.0
0.0 0.0 0.0 0.0 0.0 0.0 0.0 0.0
0.0 0.0 0.0 0.0 0.0 0.0 0.0 0.0
0.0 0.0 0.0 0.0 0.0 0.0 0.0 0.0
0.0 0.0 0.0 0.0 0.0 0.0 0.0 0.0
0.0 0.0 0.0 0.0 0.0 0.0 0.0 0.0
0.0 0.0 0.0 0.0 0.0 0.0 0.0 0.0
0.0 0.0 0.0 0.0 0.0 0.0 0.0 0.0
0.0 0.0 0.0 0.0 0.0 0.0 0.0 0.0
0.0 0.0 0.0 0.0 0.0 0.0 0.0 0.0
0.0 0.0 0.0 0.0 0.0 0.0 0.0 0.0
0.0 0.0 0.0 0.0 0.0 0.0 0.0 0.0
0.0 0.0 0.0 0.0 0.0 0.0 0.0 0.0
0.0 0.0 0.0 0.0 0.0 0.0 0.0 0.0
0.0 0.0 0.0 0.0 0.0 0.0 0.0 0.0
0.0 0.0 0.0 0.0 0.0 0.0 0.0 0.0
0.0 0.0 0.0 0.0 0.0 0.0 0.0 0.0
0.0 0.0 0.0 0.0 0.0 0.0 0.0 0.0
0.0 0.0 0.0 0.0 0.0 0.0 0.0 0.0
0.0 0.0 0.0 0.0 0.0 0.0 0.0 0.0
0.0 0.0 0.0 0.0 0.0 0.0 0.0 0.0
0.0 0.0 0.0 0.0 0.0 0.0 0.0 0.0
0.0 0.0 0.0 0.0 0.0 0.0 0.0 0.0
0.0 0.0 0.0 0.0 0.0 0.0 0.0 0.0
00000000: 8080 8080 8080 8080 8080 8080 8080 8080
00000010: 8080 8080 8080 8080 8080 8080 8080 8080
00000020: 8080 8080 8080 8080 8080 8080 8080 8080
00000030: 8080 8080 8080 8080 8080 8080 8080 8080
00000040: 8080 8080 8080 8080 8080 8080 8080 8080
00000050: 8080 8080 8080 8080 8080 8080 8080 8080
00000060: 8080 8080 8080 8080 8080 8080 8080 8080
00000070: 8080 8080 8080 8080 8080 8080 8080 8080
00000080: 8080 8080 8080 8080 8080 8080 8080 8080
00000090: 8080 8080 8080 8080 8080 8080 8080 8080
000000a0: 8080 8080 8080 8080 8080 8080 8080 8080
000000b0: 8080 8080 8080 8080 8080 8080 8080 8080
000000c0: 8080 8080 8080 8080 8080 8080 8080 8080
000000d0: 8080 8080 8080 8080 8080 8080 8080 8080
000000e0: 8080 8080 8080 8080 8080 8080 8080 8080
000000f0: 8080 8080 8080 8080 8080 8080 8080 8080

tfl.pseudo_qconst4 i1 [1, 4, 1, 30] scale=1.4935687 zero_point=-128
0.0 0.0 0.0 0.0 0.0 0.0 0.0 0.0
0.0 0.0 0.0 0.0 0.0 0.0 0.0 0.0
0.0 0.0 0.0 0.0 0.0 0.0 0.0 0.0
0.0 0.0 0.0 0.0 0.0 0.0 0.0 0.0
0.0 0.0 0.0 0.0 0.0 0.0 0.0 0.0
0.0 0.0 0.0 0.0 0.0 0.0 0.0 0.0
0.0 0.0 0.0 0.0 0.0 0.0 0.0 0.0
0.0 0.0 0.0 0.0 0.0 0.0 0.0 0.0
0.0 0.0 0.0 0.0 0.0 0.0 0.0 0.0
0.0 0.0 0.0 0.0 0.0 0.0 0.0 0.0
0.0 0.0 0.0 0.0 0.0 0.0 0.0 0.0
0.0 0.0 0.0 0.0 0.0 0.0 0.0 0.0
0.0 0.0 0.0 0.0 0.0 0.0 0.0 0.0
0.0 0.0 0.0 0.0 0.0 0.0 0.0 0.0
0.0 0.0 0.0 0.0 0.0 0.0 0.0 0.0
00000000: 8080 8080 8080 8080 8080 8080 8080 8080
00000010: 8080 8080 8080 8080 8080 8080 8080 8080
00000020: 8080 8080 8080 8080 8080 8080 8080 8080
00000030: 8080 8080 8080 8080 8080 8080 8080 8080
00000040: 8080 8080 8080 8080 8080 8080 8080 8080
00000050: 8080 8080 8080 8080 8080 8080 8080 8080
00000060: 8080 8080 8080 8080 8080 8080 8080 8080
00000070: 8080 8080 8080 8080

tfl.pseudo_qconst5 i1 [1, 2, 1, 40] scale=0.101960786 zero_point=-128
0.0 0.0 0.0 0.0 0.0 0.0 0.0 0.0
0.0 0.0 0.0 0.0 0.0 0.0 0.0 0.0
0.0 0.0 0.0 0.0 0.0 0.0 0.0 0.0
0.0 0.0 0.0 0.0 0.0 0.0 0.0 0.0
0.0 0.0 0.0 0.0 0.0 0.0 0.0 0.0
0.0 0.0 0.0 0.0 0.0 0.0 0.0 0.0
0.0 0.0 0.0 0.0 0.0 0.0 0.0 0.0
0.0 0.0 0.0 0.0 0.0 0.0 0.0 0.0
0.0 0.0 0.0 0.0 0.0 0.0 0.0 0.0
0.0 0.0 0.0 0.0 0.0 0.0 0.0 0.0
00000000: 8080 8080 8080 8080 8080 8080 8080 8080
00000010: 8080 8080 8080 8080 8080 8080 8080 8080
00000020: 8080 8080 8080 8080 8080 8080 8080 8080
00000030: 8080 8080 8080 8080 8080 8080 8080 8080
00000040: 8080 8080 8080 8080 8080 8080 8080 8080
