app/src/main/assets/wakeword/okay_nabu.tflite (tflite, 60264 bytes, 18 tensors)

model/dense/MatMul i1 [1, 384] scale=0.0034390315 zero_point=0
-0.25792736 -0.04126838 0.19258577 0.0 -0.006878063 0.2510493 -0.123805135 0.07221966
0.017195158 0.11348804 -0.02407322 -0.16851255 -0.18226868 -0.055024505 0.030951284 -0.051585473
0.07221966 -0.16851255 -0.22009802 -0.15131739 -0.08597579 -0.436757 -0.18914673 0.0653416
-0.027512252 -0.1306832 0.22697608 -0.24417123 0.1306832 0.0034390315 -0.2510493 -0.06878063
-0.11348804 -0.22697608 -0.24761027 -0.058463536 -0.09285385 -0.1306832 -0.16851255 -0.32326895
-0.079097725 -0.18914673 -0.123805135 -0.07221966 0.055024505 -0.051585473 0.037829347 -0.20978093
-0.15819545 -0.02407322 -0.3060738 -0.04814644 -0.15131739 -0.36109832 -0.14443932 -0.013756126
0.09285385 -0.35765928 0.0034390315 -0.02407322 -0.058463536 -0.37485445 -0.1857077 0.010317095
-0.13412222 -0.09285385 0.09629288 -0.09629288 -0.006878063 0.16507351 0.006878063 0.0
-0.04470741 0.1306832 -0.058463536 -0.013756126 -0.08941482 -0.017195158 0.030951284 -0.04126838
-0.013756126 -0.055024505 -0.1306832 0.08253676 0.04126838 -0.13412222 -0.09285385 0.075658694
-0.027512252 0.0034390315 0.1410003 -0.08253676 0.061902568 -0.02407322 -0.11004901 -0.11348804
-0.11692707 -0.123805135 -0.20290285 -0.18226868 -0.02407322 -0.075658694 0.04814644 -0.013756126
0.0034390315 -0.058463536 0.037829347 -0.099731915 -0.12724417 0.0653416 -0.055024505 -0.14443932
0.0653416 0.0034390315 -0.027512252 -0.0653416 -0.17195158 -0.15131739 0.010317095 0.02063419
-0.120366104 -0.13412222 0.061902568 -0.103170946 -0.13756126 -0.16507351 -0.0653416 0.0
-0.11348804 -0.02063419 -0.02407322 -0.02063419 -0.103170946 -0.037829347 -0.04814644 -0.02407322
-0.017195158 -0.04814644 -0.013756126 -0.08253676 -0.079097725 -0.12724417 -0.02407322 -0.14787835
-0.061902568 -0.11004901 -0.037829347 -0.1306832 -0.061902568 0.010317095 -0.006878063 0.037829347
0.123805135 -0.037829347 0.075658694 0.034390315 0.12724417 -0.051585473 0.04126838 -0.11348804
-0.099731915 -0.06878063 -0.030951284 -0.04126838 -0.055024505 -0.027512252 -0.16851255 -0.06878063
-0.02063419 -0.09629288 0.0034390315 -0.07221966 -0.02063419 -0.04470741 0.06878063 -0.034390315
-0.13756126 -0.034390315 -0.027512252 0.030951284 -0.16163447 -0.027512252 -0.07221966 0.02407322
0.02407322 -0.08941482 -0.0034390315 -0.0653416 -0.030951284 0.0 -0.055024505 0.16851255
0.030951284 0.120366104 0.10660998 0.010317095 -0.055024505 0.11004901 -0.061902568 -0.06878063
-0.11348804 0.02407322 0.017195158 0.030951284 0.017195158 -0.08941482 -0.034390315 -0.061902568
-0.16851255 -0.14787835 -0.17882964 0.079097725 -0.099731915 -0.16507351 -0.1410003 -0.017195158
0.11004901 -0.037829347 -0.010317095 0.04126838 0.013756126 0.017195158 -0.017195158 0.07221966
-0.09629288 -0.07221966 -0.030951284 -0.14443932 -0.075658694 0.0 -0.010317095 0.08253676
-0.08253676 -0.051585473 -0.02063419 -0.099731915 -0.09629288 -0.08597579 0.04126838 -0.04814644
-0.11348804 -0.10660998 -0.037829347 -0.0653416 -0.15475643 -0.0653416 0.04126838 -0.079097725
-0.04126838 -0.13412222 -0.1753906 -0.11692707 0.006878063 0.013756126 -0.02407322 0.10660998
00000000: b5f4 3800 fe49 dc15 0521 f9cf cbf0 09f1
00000010: 15cf c0d4 e781 c913 f8da 42b9 2601 b7ec
00000020: dfbe b8ef e5da cfa2 e9c9 dceb 10f1 0bc3
00000030: d2f9 a7f2 d497 d6fc 1b98 01f9 ef93 ca03
00000040: d9e5 1ce4 fe30 0200 f326 effc e6fb 09f4
00000050: fcf0 da18 0cd9 e516 f801 29e8 12f9 e0df
00000060: dedc c5cb f9ea 0efc 01ef 0be3 db13 f0d6
00000070: 1301 f8ed ced4 0306 ddd9 12e2 d8d0 ed00
00000080: dffa f9fa e2f5 f2f9 fbf2 fce8 e9db f9d5
00000090: eee0 f5da ee03 fe0b 24f5 160a 25f1 0cdf
000000a0: e3ec f7f4 f0f8 cfec fae4 01eb faf3 14f6
000000b0: d8f6 f809 d1f8 eb07 07e6 ffed f700 f031
000000c0: 0923 1f03 f020 eeec df07 0509 05e6 f6ee
000000d0: cfd5 cc17 e3d0 d7fb 20f5 fd0c 0405 fb15
000000e0: e4eb f7d6 ea00 fd18 e8f1 fae3 e4e7 0cf2
000000f0: dfe1 f5ed d3ed 0ce9 f4d9 cdde 0204 f91f

model/conv2d_4/Conv2D i1 [64, 1, 1, 64]
27 76 73 -8 -65 36 16 -50
17 -22 -7 -60 -2 20 12 30
45 27 51 12 54 17 -10 -40
-23 31 -24 -33 -22 15 -38 15
100 68 13 -48 -51 6 -9 7
-7 -47 3 -63 -26 -66 31 72
47 35 51 27 127 51 -41 15
34 -34 1 -65 -23 -4 54 21
-25 -31 -19 11 78 -31 -48 -43
-20 73 26 -48 33 -63 21 -39
-37 -16 57 50 97 -5 45 6
47 70 -32 -1 17 26 -57 -31
-4 -65 -23 38 76 -127 97 -52
-23 -51 4 11 -71 -59 -108 -56
-46 -4 14 13 8 -38 15 21
45 -2 21 -15 49 36 34 -21
-39 -41 -9 11 36 -7 8 56
26 46 -69 -10 -99 -29 3 56
26 -12 63 -25 -127 7 27 -58
-49 -91 -58 81 -36 -22 39 36
-79 87 -26 -31 10 9 -101 13
-31 49 -20 6 72 -13 31 54
-9 -36 35 -95 -44 -108 -40 -62
101 -86 41 -12 74 4 -25 5
86 38 82 -46 34 -14 0 -1
8 35 -20 37 -57 -18 42 7
-2 52 0 -39 -27 73 -52 -86
90 13 60 -49 21 82 -113 -3
17 49 64 -46 -88 -32 4 21
-70 27 72 118 102 82 -15 -11
-41 -57 -92 -59 -28 125 62 52
74 -127 -53 42 78 44 24 29
00000000: 1b4c 49f8 bf24 10ce 11ea f9c4 fe14 0c1e
00000010: 2d1b 330c 3611 f6d8 e91f e8df ea0f da0f
00000020: 6444 0dd0 cd06 f707 f9d1 03c1 e6be 1f48
00000030: 2f23 331b 7f33 d70f 22de 01bf e9fc 3615
00000040: e7e1 ed0b 4ee1 d0d5 ec49 1ad0 21c1 15d9
00000050: dbf0 3932 61fb 2d06 2f46 e0ff 111a c7e1
00000060: fcbf e926 4c81 61cc e9cd 040b b9c5 94c8
00000070: d2fc 0e0d 08da 0f15 2dfe 15f1 3124 22eb
00000080: d9d7 f70b 24f9 0838 1a2e bbf6 9de3 0338
00000090: 1af4 3fe7 8107 1bc6 cfa5 c651 dcea 2724
000000a0: b157 e6e1 0a09 9b0d e131 ec06 48f3 1f36
000000b0: f7dc 23a1 d494 d8c2 65aa 29f4 4a04 e705
000000c0: 5626 52d2 22f2 00ff 0823 ec25 c7ee 2a07
000000d0: fe34 00d9 e549 ccaa 5a0d 3ccf 1552 8ffd
000000e0: 1131 40d2 a8e0 0415 ba1b 4876 6652 f1f5
000000f0: d7c7 a4c5 e47d 3e34 4a81 cb2a 4e2c 181d

model/depthwise_conv2d_5/depthwise i1 [1, 23, 1, 64]
70 127 127 -31 -127 -21 -124 -90
-52 -113 33 -76 -25 56 97 -127
127 -127 71 -45 -22 -16 42 -6
49 -30 -21 22 33 27 36 127
-62 40 -78 92 127 16 -11 -101
20 127 -127 -127 127 -68 9 -70
72 -17 19 -68 -127 127 -73 -127
-1 127 112 96 87 123 -48 27
60 63 94 -9 -71 7 -50 -67
-46 -127 78 -57 1 50 74 -92
82 -76 69 -79 -38 -41 45 41
42 -24 -7 -14 58 29 10 85
-53 40 -57 48 112 11 2 -71
32 108 -111 -58 72 -22 8 -62
44 10 -6 -127 -67 54 -123 -91
-6 71 61 66 61 72 -72 15
71 43 82 -17 -60 36 -25 14
14 -77 74 -19 39 19 71 8
60 -25 112 -39 -24 -50 16 106
29 -26 -24 58 66 42 9 48
-59 75 -46 20 77 11 15 -58
31 54 -25 -24 61 -30 5 9
-47 -5 -71 -99 -40 36 -127 -50
-74 51 36 54 39 37 -92 -43
26 -10 60 -21 -23 48 -3 -10
58 -74 35 -4 31 9 104 45
49 -3 115 -56 -2 -50 -29 77
29 -12 -25 39 74 36 17 20
-34 107 5 -29 42 17 -1 -77
33 44 14 -6 47 39 -11 8
-74 28 -108 -65 -39 20 -98 -55
-115 3 55 17 19 -17 -103 -40
00000000: 467f 7fe1 81eb 84a6 cc8f 21b4 e738 6181
00000010: 7f81 47d3 eaf0 2afa 31e2 eb16 211b 247f
00000020: c228 b25c 7f10 f59b 147f 8181 7fbc 09ba
00000030: 48ef 13bc 817f b781 ff7f 7060 577b d01b
00000040: 3c3f 5ef7 b907 cebd d281 4ec7 0132 4aa4
00000050: 52b4 45b1 dad7 2d29 2ae8 f9f2 3a1d 0a55
00000060: cb28 c730 700b 02b9 206c 91c6 48ea 08c2
00000070: 2c0a fa81 bd36 85a5 fa47 3d42 3d48 b80f
00000080: 472b 52ef c424 e70e 0eb3 4aed 2713 4708
00000090: 3ce7 70d9 e8ce 106a 1de6 e83a 422a 0930
000000a0: c54b d214 4d0b 0fc6 1f36 e7e8 3de2 0509
000000b0: d1fb b99d d824 81ce b633 2436 2725 a4d5
000000c0: 1af6 3ceb e930 fdf6 3ab6 23fc 1f09 682d
000000d0: 31fd 73c8 fece e34d 1df4 e727 4a24 1114
000000e0: de6b 05e3 2a11 ffb3 212c 0efa 2f27 f508
000000f0: b61c 94bf d914 9ec9 8d03 3711 13ef 99d8

model/conv2d_3/Conv2D i1 [64, 1, 1, 64]
22 -1 -68 -44 -34 -77 -45 -82
-14 18 67 -71 44 50 29 3
46 127 -41 48 57 76 19 51
55 52 -9 -90 91 20 -87 -9
-58 -60 25 0 56 64 -63 52
-30 13 -117 28 1 -41 -63 -37
-28 -26 -42 -104 -24 -31 -48 -109
-46 61 -64 11 -71 -9 67 -110
-3 15 14 -28 -84 0 -30 26
-104 -118 29 -26 -32 -32 -18 -58
-1 54 -91 15 -3 13 127 77
28 66 28 15 36 70 -51 2
-108 -41 60 56 -100 22 36 2
-69 -63 -28 -59 -87 -19 -29 -3
-43 30 35 -2 -76 79 11 0
-15 100 40 69 -72 -22 -45 -37
-10 11 -50 -17 -56 9 14 41
13 54 29 -3 76 74 -13 -20
-16 18 -82 6 -36 51 -32 1
-49 -26 -69 -11 -15 24 18 33
-27 -19 1 -41 -127 53 -64 30
-54 -7 -73 -125 -8 61 -29 -91
20 -70 -110 -18 12 -29 2 25
38 25 -8 31 16 -14 8 -37
71 79 -72 36 -68 116 92 77
-6 -5 -42 32 -32 114 -41 96
71 -8 -91 -5 6 54 -105 1
-67 94 39 16 31 -71 -92 32
28 -25 -18 -59 -88 -28 57 110
-45 28 46 -75 -5 -61 -16 -110
-13 -25 21 100 -21 -58 -6 43
-12 2 -48 -55 -2 -127 -29 21
00000000: 16ff bcd4 deb3 d3ae f212 43b9 2c32 1d03
00000010: 2e7f d730 394c 1333 3734 f7a6 5b14 a9f7
00000020: c6c4 1900 3840 c134 e20d 8b1c 01d7 c1db
00000030: e4e6 d698 e8e1 d093 d23d c00b b9f7 4392
00000040: fd0f 0ee4 ac00 e21a 988a 1de6 e0e0 eec6
00000050: ff36 a50f fd0d 7f4d 1c42 1c0f 2446 cd02
00000060: 94d7 3c38 9c16 2402 bbc1 e4c5 a9ed e3fd
00000070: d51e 23fe b44f 0b00 f164 2845 b8ea d3db
00000080: f60b ceef c809 0e29 0d36 1dfd 4c4a f3ec
00000090: f012 ae06 dc33 e001 cfe6 bbf5 f118 1221
000000a0: e5ed 01d7 8135 c01e caf9 b783 f83d e3a5
000000b0: 14ba 92ee 0ce3 0219 2619 f81f 10f2 08db
000000c0: 474f b824 bc74 5c4d fafb d620 e072 d760
000000d0: 47f8 a5fb 0636 9701 bd5e 2710 1fb9 a420
000000e0: 1ce7 eec5 a8e4 396e d31c 2eb5 fbc3 f092
000000f0: f3e7 1564 ebc6 fa2b f402 d0c9 fe81 e315

model/depthwise_conv2d_4/depthwise1 i1 [1, 15, 1, 32]
-73 12 -86 -6 127 48 -65 -38
127 50 -37 -127 116 8 43 119
-108 95 -14 34 -127 -75 -127 -51
-91 127 -45 28 -68 -21 -127 127
-70 -48 -98 -9 118 7 -127 -13
74 -41 -81 -47 123 36 110 75
58 127 4 37 -111 -2 -64 -37
-85 43 -81 -25 2 -23 -52 73
-19 -45 -43 15 72 36 -32 -6
59 14 -127 -50 58 37 85 11
42 110 -12 6 -111 -28 -97 -17
-127 51 -27 -34 33 -9 -22 58
10 -4 17 -10 102 47 6 -9
26 -41 -77 -54 49 75 119 11
5 64 -30 14 -94 22 -85 -40
-63 30 -109 -63 11 -20 6 68
30 -8 84 5 49 39 18 27
20 23 -70 -20 -5 67 127 -14
109 73 -104 -20 -45 71 -110 -91
-117 -2 -105 -68 56 -15 -14 80
30 -16 109 -63 4 39 86 -3
9 5 -48 10 6 52 14 40
127 58 -112 -9 -40 62 -58 -79
-26 26 -84 -127 27 -17 6 54
-20 -26 60 -110 -20 21 112 38
-25 -68 46 23 -69 75 118 122
-22 34 -33 -7 31 106 -20 76
4 46 -109 -22 61 -7 2 70
29 -42 -35 -94 -59 34 58 44
-5 -127 43 -4 -127 91 46 111
-80 -75 -27 -32 19 82 65 127
-73 9 -103 -64 -2 2 -20 37
00000000: b70c aafa 7f30 bfda 7f32 db81 7408 2b77
00000010: 945f f222 81b5 81cd a57f d31c bceb 817f
00000020: bad0 9ef7 7607 81f3 4ad7 afd1 7b24 6e4b
00000030: 3a7f 0425 91fe c0db ab2b afe7 02e9 cc49
00000040: edd3 d50f 4824 e0fa 3b0e 81ce 3a25 550b
00000050: 2a6e f406 91e4 9fef 8133 e5de 21f7 ea3a
00000060: 0afc 11f6 662f 06f7 1ad7 b3ca 314b 770b
00000070: 0540 e20e a216 abd8 c11e 93c1 0bec 0644
00000080: 1ef8 5405 3127 121b 1417 baec fb43 7ff2
00000090: 6d49 98ec d347 92a5 8bfe 97bc 38f1 f250
000000a0: 1ef0 6dc1 0427 56fd 0905 d00a 0634 0e28
000000b0: 7f3a 90f7 d83e c6b1 e61a ac81 1bef 0636
000000c0: ece6 3c92 ec15 7026 e7bc 2e17 bb4b 767a
000000d0: ea22 dff9 1f6a ec4c 042e 93ea 3df9 0246
000000e0: 1dd6 dda2 c522 3a2c fb81 2bfc 815b 2e6f
000000f0: b0b5 e5e0 1352 417f b709 99c0 fe02 ec25

model/depthwise_conv2d_3/depthwise i1 [1, 9, 1, 32]
39 -14 -39 17 127 120 69 -32
-20 28 -107 -3 58 17 -76 124
-53 -25 127 -14 -68 -18 116 56
-90 86 -42 -60 97 57 -48 -36
49 -16 23 65 45 24 61 -57
-4 16 -81 -13 -127 -20 -82 34
-87 -17 80 46 -127 51 126 -30
-125 15 52 76 127 33 2 -30
-63 -29 -12 56 97 97 27 6
22 43 -98 15 -59 -18 14 59
-90 -58 44 7 -67 57 127 -109
-102 34 100 -59 53 57 -40 84
-11 8 50 30 22 50 54 39
68 28 -77 69 120 -14 -74 -17
-87 -37 76 38 -75 30 102 -115
-22 5 127 81 5 10 -4 47
-102 -26 55 47 70 99 97 34
55 -30 -36 66 45 -54 -29 22
-32 -12 47 -46 -118 127 35 -111
-81 34 0 47 101 1 75 -41
-127 -15 -17 11 41 5 127 36
89 -72 56 -39 -28 -22 52 9
-28 -75 47 -25 -37 31 48 -112
-54 -66 38 1 -80 32 40 -24
-110 -34 -8 -60 115 92 121 -50
123 -127 78 2 33 -127 68 -24
-15 -54 -11 -45 -32 -34 -44 -127
61 -27 -65 25 -62 -16 49 -31
11 -35 -96 -22 72 117 60 -127
54 -100 127 80 62 -122 -15 -127
100 -34 -2 -127 94 -64 -39 -15
78 -85 -12 -87 -96 -48 100 -103
00000000: 27f2 d911 7f78 45e0 ec1c 95fd 3a11 b47c
00000010: cbe7 7ff2 bcee 7438 a656 d6c4 6139 d0dc
00000020: 31f0 1741 2d18 3dc7 fc10 aff3 81ec ae22
00000030: a9ef 502e 8133 7ee2 830f 344c 7f21 02e2
00000040: c1e3 f438 6161 1b06 162b 9e0f c5ee 0e3b
00000050: a6c6 2c07 bd39 7f93 9a22 64c5 3539 d854
00000060: f508 321e 1632 3627 441c b345 78f2 b6ef
00000070: a9db 4c26 b51e 668d ea05 7f51 050a fc2f
00000080: 9ae6 372f 4663 6122 37e2 dc42 2dca e316
00000090: e0f4 2fd2 8a7f 2391 af22 002f 6501 4bd7
000000a0: 81f1 ef0b 2905 7f24 59b8 38d9 e4ea 3409
000000b0: e4b5 2fe7 db1f 3090 cabe 2601 b020 28e8
000000c0: 92de f8c4 735c 79ce 7b81 4e02 2181 44e8
000000d0: f1ca f5d3 e0de d481 3de5 bf19 c2f0 31e1
000000e0: 0bdd a0ea 4875 3c81 369c 7f50 3e86 f181
000000f0: 64de fe81 5ec0 d9f1 4eab f4a9 a0d0 6499

model/conv2d_2/Conv2D i1 [64, 1, 1, 64]
-15 72 -44 67 -8 -70 -49 -48
-51 56 82 0 61 65 -24 -96
33 66 9 -30 82 11 -51 77
20 97 51 26 12 -14 62 21
-40 -53 8 7 37 -56 -5 27
23 -5 60 68 -21 30 65 127
-55 17 -95 -60 14 27 -9 -15
-65 52 -52 -11 -41 -87 21 -27
80 44 -26 56 -46 -22 12 -35
88 -90 -60 -81 122 -2 -45 125
110 90 -36 -99 82 112 6 -4
-4 -75 -62 114 0 -63 -13 47
54 -8 -32 -17 -95 -70 27 16
127 51 -43 -6 27 48 -3 -32
-96 16 -52 36 -3 -99 -1 31
3 -34 122 -65 33 -22 19 -38
-53 4 31 24 3 -81 14 12
-52 68 -34 -26 1 35 -31 -82
36 10 37 -38 32 -2 -48 31
-26 0 10 -57 -3 -37 -3 39
21 24 19 -42 -42 79 -25 -127
-55 22 -71 56 20 52 114 -27
56 119 39 16 -9 -54 -67 -65
13 21 -4 -93 -46 1 -48 52
12 62 -11 5 -30 -49 -56 -102
-65 -45 41 66 -37 -50 67 -64
8 14 23 -73 32 1 -79 15
-73 91 -55 -30 10 12 57 -10
20 64 -52 -7 -4 14 6 18
-20 127 -57 6 -21 55 31 -61
-33 -52 51 -28 -8 31 17 -94
-35 4 23 18 -75 6 67 -8
00000000: f148 d443 f8ba cfd0 cd38 5200 3d41 e8a0
00000010: 2142 09e2 520b cd4d 1461 331a 0cf2 3e15
00000020: d8cb 0807 25c8 fb1b 17fb 3c44 eb1e 417f
00000030: c911 a1c4 0e1b f7f1 bf34 ccf5 d7a9 15e5
00000040: 502c e638 d2ea 0cdd 58a6 c4af 7afe d37d
00000050: 6e5a dc9d 5270 06fc fcb5 c272 00c1 f32f
00000060: 36f8 e0ef a1ba 1b10 7f33 d5fa 1b30 fde0
00000070: a010 cc24 fd9d ff1f 03de 7abf 21ea 13da
00000080: cb04 1f18 03af 0e0c cc44 dee6 0123 e1ae
00000090: 240a 25da 20fe d01f e600 0ac7 fddb fd27
000000a0: 1518 13d6 d64f e781 c916 b938 1434 72e5
000000b0: 3877 2710 f7ca bdbf 0d15 fca3 d201 d034
000000c0: 0c3e f505 e2cf c89a bfd3 2942 dbce 43c0
000000d0: 080e 17b7 2001 b10f b75b c9e2 0a0c 39f6
000000e0: 1440 ccf9 fc0e 0612 ec7f c706 eb37 1fc3
000000f0: dfcc 33e4 f81f 11a2 dd04 1712 b506 43f8

model/depthwise_conv2d_2/depthwise i1 [1, 11, 1, 32]
-127 -6 127 -39 123 -14 88 -37
127 -39 47 -22 127 127 51 -16
-19 55 -118 -83 -127 109 -66 -82
-54 -127 -17 109 -127 -27 -45 -127
-68 -40 96 -63 127 -33 36 47
35 24 39 -54 46 11 10 -38
-10 60 -60 -112 -77 49 -4 -46
-33 -34 24 110 -127 -95 8 24
-82 -127 90 -91 61 -34 0 85
11 54 10 -70 21 -23 6 -64
-15 -27 26 -47 -12 -40 8 -8
0 -61 79 45 -55 -104 28 -58
15 -50 111 -40 44 -69 76 103
-73 59 -21 -127 18 -98 -3 -52
-14 -127 127 22 -51 -47 83 -50
23 -13 36 16 -67 -127 -59 -46
12 -5 90 11 33 11 57 46
54 57 -4 -89 15 -104 22 -49
-9 -105 31 46 -98 -79 117 24
1 -31 -66 -14 13 -91 -80 39
78 20 29 -87 70 44 -1 13
37 29 96 37 -41 -102 -22 -44
2 -121 2 46 -28 -41 46 33
24 50 -103 -19 2 -52 -14 -84
102 50 26 -112 68 59 -25 47
70 66 55 73 3 -81 25 19
36 -64 -97 119 -10 73 38 -25
15 78 -79 -13 -61 -42 108 -55
46 22 11 -87 80 23 42 10
17 -1 -93 43 2 -17 23 20
7 84 23 59 -38 127 -2 33
26 95 -28 -15 -50 88 127 -78
00000000: 81fa 7fd9 7bf2 58db 7fd9 2fea 7f7f 33f0
00000010: ed37 8aad 816d beae ca81 ef6d 81e5 d381
00000020: bcd8 60c1 7fdf 242f 2318 27ca 2e0b 0ada
00000030: f63c c490 b331 fcd2 dfde 186e 81a1 0818
00000040: ae81 5aa5 3dde 0055 0b36 0aba 15e9 06c0
00000050: f1e5 1ad1 f4d8 08f8 00c3 4f2d c998 1cc6
00000060: 0fce 6fd8 2cbb 4c67 b73b eb81 129e fdcc
00000070: f281 7f16 cdd1 53ce 17f3 2410 bd81 c5d2
00000080: 0cfb 5a0b 210b 392e 3639 fca7 0f98 16cf
00000090: f797 1f2e 9eb1 7518 01e1 bef2 0da5 b027
000000a0: 4e14 1da9 462c ff0d 251d 6025 d79a ead4
000000b0: 0287 022e e4d7 2e21 1832 99ed 02cc f2ac
000000c0: 6632 1a90 443b e72f 4642 3749 03af 1913
000000d0: 24c0 9f77 f649 26e7 0f4e b1f3 c3d6 6cc9
000000e0: 2e16 0ba9 5017 2a0a 11ff a32b 02ef 1714
000000f0: 0754 173b da7f fe21 1a5f e4f1 ce58 7fb2

model/depthwise_conv2d_1/depthwise i1 [1, 7, 1, 32]
41 -102 -127 72 -36 -96 -124 101
124 -127 127 43 -69 -83 124 -17
56 -7 -53 -44 113 -101 105 77
-10 18 -50 -127 127 -5 -19 9
55 -124 -73 80 13 -29 38 127
63 -119 97 110 0 44 81 6
90 127 -127 -42 -41 -87 -49 66
-18 -104 -124 -100 -48 -31 4 68
-53 -127 55 57 15 86 79 -1
127 -45 -25 47 44 63 109 53
62 -54 -53 -12 -97 93 -21 127
-104 -27 103 -127 -106 -91 69 127
-76 -50 22 29 113 127 110 -37
33 41 -1 -127 47 -127 127 61
14 -56 78 127 -127 127 23 84
-127 -127 127 -106 -11 -49 48 104
-102 52 72 -62 18 34 127 -17
110 35 -82 -79 98 -42 -62 49
-4 -61 18 9 -75 118 -48 62
-46 -71 70 -21 114 -1 -34 23
41 66 -24 2 -59 62 -57 35
54 -85 -70 -116 127 127 -8 84
-109 55 71 -11 21 75 127 -76
-62 -118 -15 25 49 127 -92 -24
127 -13 -11 -127 -127 40 -48 -5
62 -100 -119 39 57 110 -20 127
-127 84 31 -65 73 -17 88 -80
-5 -106 -70 -31 -24 76 -127 -103
00000000: 299a 8148 dca0 8465 7c81 7f2b bbad 7cef
00000010: 38f9 cbd4 719b 694d f612 ce81 7ffb ed09
00000020: 3784 b750 0de3 267f 3f89 616e 002c 5106
00000030: 5a7f 81d6 d7a9 cf42 ee98 849c d0e1 0444
00000040: cb81 3739 0f56 4fff 7fd3 e72f 2c3f 6d35
00000050: 3eca cbf4 9f5d eb7f 98e5 6781 96a5 457f
00000060: b4ce 161d 717f 6edb 2129 ff81 2f81 7f3d
00000070: 0ec8 4e7f 817f 1754 8181 7f96 f5cf 3068
00000080: 9a34 48c2 1222 7fef 6e23 aeb1 62d6 c231
00000090: fcc3 1209 b576 d03e d2b9 46eb 72ff de17
000000a0: 2942 e802 c53e c723 36ab ba8c 7f7f f854
000000b0: 9337 47f5 154b 7fb4 c28a f119 317f a4e8
000000c0: 7ff3 f581 8128 d0fb 3e9c 8927 396e ec7f
000000d0: 8154 1fbf 49ef 58b0 fb96 bae1 e84c 8199

model/conv2d_1/Conv2D i1 [64, 1, 1, 32]
-39 35 55 59 80 96 93 -108
-110 -14 -39 72 -4 -36 57 127
1 19 85 -56 37 -68 57 49
-61 -47 -6 13 -42 46 -40 -51
-127 43 59 17 -65 -36 -41 8
41 -31 70 55 28 55 -76 -102
-39 43 -61 115 -14 4 10 37
103 83 58 -31 10 38 -15 64
-3 -14 -35 -51 -79 16 -37 -53
76 75 -37 34 13 -52 77 -88
10 -42 -5 -127 -56 4 19 -23
-26 55 17 -22 -18 -97 -21 -99
4 83 10 127 73 72 -2 -48
65 -7 64 48 -88 -78 13 11
37 59 79 35 66 83 32 -21
-121 43 94 -31 -68 -96 -50 30
16 21 17 -12 52 42 8 -7
-28 -42 -73 71 37 -25 -13 32
-21 78 127 8 -33 24 44 38
-45 0 9 54 -43 0 -71 -13
38 -15 36 20 -20 -49 -87 -36
25 77 -126 -79 42 -113 -18 -51
-20 127 9 20 -113 -1 28 -4
64 38 -6 7 51 -32 -14 22
61 -10 69 -52 -30 35 -28 -58
3 104 4 38 -112 9 127 9
61 34 -7 21 34 78 -10 -76
32 -28 5 -84 -28 25 35 -115
-50 51 38 18 87 19 42 -127
5 4 -42 46 -28 82 39 42
64 -8 -11 62 41 -12 -47 94
-55 32 -13 -35 -67 109 33 -49
00000000: d923 373b 5060 5d94 92f2 d948 fcdc 397f
00000010: 0113 55c8 25bc 3931 c3d1 fa0d d62e d8cd
00000020: 812b 3b11 bfdc d708 29e1 4637 1c37 b49a
00000030: d92b c373 f204 0a25 6753 3ae1 0a26 f140
00000040: fdf2 ddcd b110 dbcb 4c4b db22 0dcc 4da8
00000050: 0ad6 fb81 c804 13e9 e637 11ea ee9f eb9d
00000060: 0453 0a7f 4948 fed0 41f9 4030 a8b2 0d0b
00000070: 253b 4f23 4253 20eb 872b 5ee1 bca0 ce1e
00000080: 1015 11f4 342a 08f9 e4d6 b747 25e7 f320
00000090: eb4e 7f08 df18 2c26 d300 0936 d500 b9f3
000000a0: 26f1 2414 eccf a9dc 194d 82b1 2a8f eecd
000000b0: ec7f 0914 8fff 1cfc 4026 fa07 33e0 f216
000000c0: 3df6 45cc e223 e4c6 0368 0426 9009 7f09
000000d0: 3d22 f915 224e f6b4 20e4 05ac e419 238d
000000e0: ce33 2612 5713 2a81 0504 d62e e452 272a
000000f0: 40f8 f53e 29f4 d15e c920 f3dd bd6d 21cf

model/depthwise_conv2d/depthwise i1 [1, 5, 1, 32]
57 89 71 -113 26 -47 -58 -127
68 34 39 127 5 -43 -6 -74
27 -45 -83 -6 77 127 37 77
127 -30 -40 -30 -45 -19 89 9
16 66 51 -127 -127 -23 -16 -34
-20 58 54 34 -8 -26 -89 -87
35 -55 127 13 38 -29 -69 39
60 -127 -123 93 -30 -71 70 55
83 76 122 67 -84 10 -17 17
10 127 -32 -31 -23 -74 -96 96
-20 -34 118 -127 -127 -109 -33 15
96 63 -113 127 -45 -127 -127 -64
-31 0 112 63 23 73 91 -27
-2 16 104 62 127 -127 -92 -1
-101 127 -115 -63 -90 -106 -127 -127
40 98 -84 99 -18 46 -76 -56
-127 127 127 17 12 -127 127 -2
-127 -78 127 54 127 -127 127 127
127 110 19 123 14 83 -90 -56
84 24 127 1 -127 71 -111 127
00000000: 3959 478f 1ad1 c681 4422 277f 05d5 fab6
00000010: 1bd3 adfa 4d7f 254d 7fe2 d8e2 d3ed 5909
00000020: 1042 3381 81e9 f0de ec3a 3622 f8e6 a7a9
00000030: 23c9 7f0d 26e3 bb27 3c81 855d e2b9 4637
00000040: 534c 7a43 ac0a ef11 0a7f e0e1 e9b6 a060
00000050: ecde 7681 8193 df0f 603f 8f7f d381 81c0
00000060: e100 703f 1749 5be5 fe10 683e 7f81 a4ff
00000070: 9b7f 8dc1 a696 8181 2862 ac63 ee2e b4c8
00000080: 817f 7f11 0c81 7ffe 81b2 7f36 7f81 7f7f
00000090: 7f6e 137b 0e53 a6c8 5418 7f01 8147 917f

model/stream/conv2d/Conv2D i1 [32, 5, 1, 40]
-3 16 -16 -26 6 22 22 72
35 97 24 112 33 90 46 30
17 60 36 -12 -14 -3 0 -11
9 -10 38 0 29 -3 25 -14
10 13 7 -37 33 23 29 18
33 23 2 -23 18 -13 43 79
67 101 33 100 51 121 37 44
36 5 5 4 -17 -5 1 -32
4 -5 35 14 14 10 -10 16
13 0 -9 -8 -6 1 -9 -10
20 1 -52 -21 -15 8 21 83
91 101 56 97 61 127 52 32
8 14 -14 -28 -10 -4 -8 -1
0 -10 24 -6 -6 16 12 27
-7 -13 -33 -29 -24 -13 -37 -13
31 -20 -29 -13 -15 20 -2 30
68 59 31 70 33 70 55 34
-5 -11 -74 -50 -29 -19 -29 -10
0 -24 -9 19 -51 -2 -5 -19
-25 -41 -9 -1 -19 -6 -56 -4
-9 -41 -44 -30 -60 -2 -19 -38
45 23 33 24 22 25 42 22
-36 -48 -76 -20 0 28 -29 5
-49 0 0 -3 -40 4 1 1
-14 -13 -19 -3 1 -43 -39 -31
74 -9 -54 36 50 -67 -70 7
-40 -57 -15 18 1 -20 -11 -58
-29 -40 -13 -7 -33 -11 -3 -41
-74 -58 -36 14 5 23 -9 -4
-71 -23 5 35 -9 21 -13 -43
41 -39 -39 40 51 -81 -39 -29
-46 -29 24 -2 -22 3 -20 -46
00000000: fd10 f0e6 0616 1648 2361 1870 215a 2e1e
00000010: 113c 24f4 f2fd 00f5 09f6 2600 1dfd 19f2
00000020: 0a0d 07db 2117 1d12 2117 02e9 12f3 2b4f
00000030: 4365 2164 3379 252c 2405 0504 effb 01e0
00000040: 04fb 230e 0e0a f610 0d00 f7f8 fa01 f7f6
00000050: 1401 cceb f108 1553 5b65 3861 3d7f 3420
00000060: 080e f2e4 f6fc f8ff 00f6 18fa fa10 0c1b
00000070: f9f3 dfe3 e8f3 dbf3 1fec e3f3 f114 fe1e
00000080: 443b 1f46 2146 3722 fbf5 b6ce e3ed e3f6
00000090: 00e8 f713 cdfe fbed e7d7 f7ff edfa c8fc
000000a0: f7d7 d4e2 c4fe edda 2d17 2118 1619 2a16
000000b0: dcd0 b4ec 001c e305 cf00 00fd d804 0101
000000c0: f2f3 edfd 01d5 d9e1 4af7 ca24 32bd ba07
000000d0: d8c7 f112 01ec f5c6 e3d8 f3f9 dff5 fdd7
000000e0: b6c6 dc0e 0517 f7fc b9e9 0523 f715 f3d5
000000f0: 29d9 d928 33af d9e3 d2e3 18fe ea03 ecd2

tfl.pseudo_qconst i1 [1, 5, 1, 64] scale=0.02627178 zero_point=-128
0.0 0.0 0.0 0.0 0.0 0.0 0.0 0.0
0.0 0.0 0.0 0.0 0.0 0.0 0.0 0.0
0.0 0.0 0.0 0.0 0.0 0.0 0.0 0.0
0.0 0.0 0.0 0.0 0.0 0.0 0.0 0.0
0.0 0.0 0.0 0.0 0.0 0.0 0.0 0.0
0.0 0.0 0.0 0.0 0.0 0.0 0.0 0.0
0.0 0.0 0.0 0.0 0.0 0.0 0.0 0.0
0.0 0.0 0.0 0.0 0.0 0.0 0.0 0.0
0.0 0.0 0.0 0.0 0.0 0.0 0.0 0.0
0.0 0.0 0.0 0.0 0.0 0.0 0.0 0.0
0.0 0.0 0.0 0.0 0.0 0.0 0.0 0.0
0.0 0.0 0.0 0.0 0.0 0.0 0.0 0.0
0.0 0.0 0.0 0.0 0.0 0.0 0.0 0.0
0.0 0.0 0.0 0.0 0.0 0.0 0.0 0.0
0.0 0.0 0.0 0.0 0.0 0.0 0.0 0.0
0.0 0.0 0.0 0.0 0.0 0.0 0.0 0.0
0.0 0.0 0.0 0.0 0.0 0.0 0.0 0.0
0.0 0.0 0.0 0.0 0.0 0.0 0.0 0.0
0.0 0.0 0.0 0.0 0.0 0.0 0.0 0.0
0.0 0.0 0.0 0.0 0.0 0.0 0.0 0.0
0.0 0.0 0.0 0.0 0.0 0.0 0.0 0.0
0.0 0.0 0.0 0.0 0.0 0.0 0.0 0.0
0.0 0.0 0.0 0.0 0.0 0.0 0.0 0.0
0.0 0.0 0.0 0.0 0.0 0.0 0.0 0.0
0.0 0.0 0.0 0.0 0.0 0.0 0.0 0.0
0.0 0.0 0.0 0.0 0.0 0.0 0.0 0.0
0.0 0.0 0.0 0.0 0.0 0.0 0.0 0.0
0.0 0.0 0.0 0.0 0.0 0.0 0.0 0.0
0.0 0.0 0.0 0.0 0.0 0.0 0.0 0.0
0.0 0.0 0.0 0.0 0.0 0.0 0.0 0.0
0.0 0.0 0.0 0.0 0.0 0.0 0.0 0.0
0.0 0.0 0.0 0.0 0.0 0.0 0.0 0.0
00000000: 8080 8080 8080 8080 8080 8080 8080 8080
00000010: 8080 8080 8080 8080 8080 8080 8080 8080
00000020: 8080 8080 8080 8080 8080 8080 8080 8080
00000030: 8080 8080 8080 8080 8080 8080 8080 8080
00000040: 8080 8080 8080 8080 8080 8080 8080 8080
00000050: 8080 8080 8080 8080 8080 8080 8080 8080
00000060: 8080 8080 8080 8080 8080 8080 8080 8080
00000070: 8080 8080 8080 8080 8080 8080 8080 8080
00000080: 8080 8080 8080 8080 8080 8080 8080 8080
00000090: 8080 8080 8080 8080 8080 8080 8080 8080
000000a0: 8080 8080 8080 8080 8080 8080 8080 8080
000000b0: 8080 8080 8080 8080 8080 8080 8080 8080
000000c0: 8080 8080 8080 8080 8080 8080 8080 8080
000000d0: 8080 8080 8080 8080 8080 8080 8080 8080
000000e0: 8080 8080 8080 8080 8080 8080 8080 8080
000000f0: 8080 8080 8080 8080 8080 8080 8080 8080

tfl.pseudo_qconst1 i1 [1, 22, 1, 64] scale=0.031987306 zero_point=-128
0.0 0.0 0.0 0.0 0.0 0.0 0.0 0.0
0.0 0.0 0.0 0.0 0.0 0.0 0.0 0.0
0.0 0.0 0.0 0.0 0.0 0.0 0.0 0.0
0.0 0.0 0.0 0.0 0.0 0.0 0.0 0.0
0.0 0.0 0.0 0.0 0.0 0.0 0.0 0.0
0.0 0.0 0.0 0.0 0.0 0.0 0.0 0.0
0.0 0.0 0.0 0.0 0.0 0.0 0.0 0.0
0.0 0.0 0.0 0.0 0.0 0.0 0.0 0.0
0.0 0.0 0.0 0.0 0.0 0.0 0.0 0.0
0.0 0.0 0.0 0.0 0.0 0.0 0.0 0.0
0.0 0.0 0.0 0.0 0.0 0.0 0.0 0.0
0.0 0.0 0.0 0.0 0.0 0.0 0.0 0.0
0.0 0.0 0.0 0.0 0.0 0.0 0.0 0.0
0.0 0.0 0.0 0.0 0.0 0.0 0.0 0.0
0.0 0.0 0.0 0.0 0.0 0.0 0.0 0.0
0.0 0.0 0.0 0.0 0.0 0.0 0.0 0.0
0.0 0.0 0.0 0.0 0.0 0.0 0.0 0.0
0.0 0.0 0.0 0.0 0.0 0.0 0.0 0.0
0.0 0.0 0.0 0.0 0.0 0.0 0.0 0.0
0.0 0.0 0.0 0.0 0.0 0.0 0.0 0.0
0.0 0.0 0.0 0.0 0.0 0.0 0.0 0.0
0.0 0.0 0.0 0.0 0.0 0.0 0.0 0.0
0.0 0.0 0.0 0.0 0.0 0.0 0.0 0.0
0.0 0.0 0.0 0.0 0.0 0.0 0.0 0.0
0.0 0.0 0.0 0.0 0.0 0.0 0.0 0.0
0.0 0.0 0.0 0.0 0.0 0.0 0.0 0.0
0.0 0.0 0.0 0.0 0.0 0.0 0.0 0.0
0.0 0.0 0.0 0.0 0.0 0.0 0.0 0.0
0.0 0.0 0.0 0.0 0.0 0.0 0.0 0.0
0.0 0.0 0.0 0.0 0.0 0.0 0.0 0.0
0.0 0.0 0.0 0.0 0.0 0.0 0.0 0.0
0.0 0.0 0.0 0.0 0.0 0.0 0.0 0.0
00000000: 8080 8080 8080 8080 8080 8080 8080 8080
00000010: 8080 8080 8080 8080 8080 8080 8080 8080
00000020: 8080 8080 8080 8080 8080 8080 8080 8080
00000030: 8080 8080 8080 8080 8080 8080 8080 8080
00000040: 8080 8080 8080 8080 8080 8080 8080 8080
00000050: 8080 8080 8080 8080 8080 8080 8080 8080
00000060: 8080 8080 8080 8080 8080 8080 8080 8080
00000070: 8080 8080 8080 8080 8080 8080 8080 8080
00000080: 8080 8080 8080 8080 8080 8080 8080 8080
00000090: 8080 8080 8080 8080 8080 8080 8080 8080
000000a0: 8080 8080 8080 8080 8080 8080 8080 8080
000000b0: 8080 8080 8080 8080 8080 8080 8080 8080
000000c0: 8080 8080 8080 8080 8080 8080 8080 8080
000000d0: 8080 8080 8080 8080 8080 8080 8080 8080
000000e0: 8080 8080 8080 8080 8080 8080 8080 8080
000000f0: 8080 8080 8080 8080 8080 8080 8080 8080

tfl.pseudo_qconst2 i1 [1, 14, 1, 64] scale=0.040870868 zero_point=-128
0.0 0.0 0.0 0.0 0.0 0.0 0.0 0.0
0.0 0.0 0.0 0.0 0.0 0.0 0.0 0.0
0.0 0.0 0.0 0.0 0.0 0.0 0.0 0.0
0.0 0.0 0.0 0.0 0.0 0.0 0.0 0.0
0.0 0.0 0.0 0.0 0.0 0.0 0.0 0.0
0.0 0.0 0.0 0.0 0.0 0.0 0.0 0.0
0.0 0.0 0.0 0.0 0.0 0.0 0.0 0.0
0.0 0.0 0.0 0.0 0.0 0.0 0.0 0.0
0.0 0.0 0.0 0.0 0.0 0.0 0.0 0.0
0.0 0.0 0.0 0.0 0.0 0.0 0.0 0.0
0.0 0.0 0.0 0.0 0.0 0.0 0.0 0.0
0.0 0.0 0.0 0.0 0.0 0.0 0.0 0.0
0.0 0.0 0.0 0.0 0.0 0.0 0.0 0.0
0.0 0.0 0.0 0.0 0.0 0.0 0.0 0.0
0.0 0.0 0.0 0.0 0.0 0.0 0.0 0.0
0.0 0.0 0.0 0.0 0.0 0.0 0.0 0.0
0.0 0.0 0.0 0.0 0.0 0.0 0.0 0.0
0.0 0.0 0.0 0.0 0.0 0.0 0.0 0.0
0.0 0.0 0.0 0.0 0.0 0.0 0.0 0.0
0.0 0.0 0.0 0.0 0.0 0.0 0.0 0.0
0.0 0.0 0.0 0.0 0.0 0.0 0.0 0.0
0.0 0.0 0.0 0.0 0.0 0.0 0.0 0.0
0.0 0.0 0.0 0.0 0.0 0.0 0.0 0.0
0.0 0.0 0.0 0.0 0.0 0.0 0.0 0.0
0.0 0.0 0.0 0.0 0.0 0.0 0.0 0.0
0.0 0.0 0.0 0.0 0.0 0.0 0.0 0.0
0.0 0.0 0.0 0.0 0.0 0.0 0.0 0.0
0.0 0.0 0.0 0.0 0.0 0.0 0.0 0.0
0.0 0.0 0.0 0.0 0.0 0.0 0.0 0.0
0.0 0.0 0.0 0.0 0.0 0.0 0.0 0.0
0.0 0.0 0.0 0.0 0.0 0.0 0.0 0.0
0.0 0.0 0.0 0.0 0.0 0.0 0.0 0.0
00000000: 8080 8080 8080 8080 8080 8080 8080 8080
00000010: 8080 8080 8080 8080 8080 8080 8080 8080
00000020: 8080 8080 8080 8080 8080 8080 8080 8080
00000030: 8080 8080 8080 8080 8080 8080 8080 8080
00000040: 8080 8080 8080 8080 8080 8080 8080 8080
00000050: 8080 8080 8080 8080 8080 8080 8080 8080
00000060: 8080 8080 8080 8080 8080 8080 8080 8080
00000070: 8080 8080 8080 8080 8080 8080 8080 8080
00000080: 8080 8080 8080 8080 8080 8080 8080 8080
00000090: 8080 8080 8080 8080 8080 8080 8080 8080
000000a0: 8080 8080 8080 8080 8080 8080 8080 8080
000000b0: 8080 8080 8080 8080 8080 8080 8080 8080
000000c0: 8080 8080 8080 8080 8080 8080 8080 8080
000000d0: 8080 8080 8080 8080 8080 8080 8080 8080
000000e0: 8080 8080 8080 8080 8080 8080 8080 8080
000000f0: 8080 8080 8080 8080 8080 8080 8080 8080

tfl.pseudo_qconst3 i1 [1, 10, 1, 64] scale=0.034545682 zero_point=-128
0.0 0.0 0.0 0.0 0.0 0.0 0.0 0.0
0.0 0.0 0.0 0.0 0.0 0.0 0.0 0.0
0.0 0.0 0.0 0.0 0.0 0.0 0.0 0.0
0.0 0.0 0.0 0.0 0.0 0.0 0.0 0.0
0.0 0.0 0.0 0.0 0.0 0.0 0.0 0.0
0.0 0.0 0.0 0.0 0.0 0.0 0.0 0.0
0.0 0.0 0.0 0.0 0.0 0.0 0.0 0.0
0.0 0.0 0.0 0.0 0.0 0.0 0.0 0.0
0.0 0.0 0.0 0.0 0.0 0.0 0.0 0.0
0.0 0.0 0.0 0.0 0.0 0.0 0.0 0.0
0.0 0.0 0.0 0.0 0.0 0.0 0.0 0.0
0.0 0.0 0.0 0.0 0.0 0.0 0.0 0.0
0.0 0.0 0.0 0.0 0.0 0.0 0.0 0.0
0.0 0.0 0.0 0.0 0.0 0.0 0.0 0.0
0.0 0.0 0.0 0.0 0.0 0.0 0.0 0.0
0.0 0.0 0.0 0.0 0.0 0.0 0.0 0.0
0.0 0.0 0.0 0.0 0.0 0.0 0.0 0.0
0.0 0.0 0.0 0.0 0.0 0.0 0.0 0.0
0.0 0.0 0.0 0.0 0.0 0.0 0.0 0.0
0.0 0.0 0.0 0.0 0.0 0.0 0.0 0.0
0.0 0.0 0.0 0.0 0.0 0.0 0.0 0.0
0.0 0.0 0.0 0.0 0.0 0.0 0.0 0.0
0.0 0.0 0.0 0.0 0.0 0.0 0.0 0.0
0.0 0.0 0.0 0.0 0.0 0.0 0.0 0.0
0.0 0.0 0.0 0.0 0.0 0.0 0.0 0.0
0.0 0.0 0.0 0.0 0.0 0.0 0.0 0.0
0.0 0.0 0.0 0.0 0.0 0.0 0.0 0.0
0.0 0.0 0.0 0.0 0.0 0.0 0.0 0.0
0.0 0.0 0.0 0.0 0.0 0.0 0.0 0.0
0.0 0.0 0.0 0.0 0.0 0.0 0.0 0.0
0.0 0.0 0.0 0.0 0.0 0.0 0.0 0.0
0.0 0.0 0.0 0.0 0.0 0.0 0.0 0.0
00000000: 8080 8080 8080 8080 8080 8080 8080 8080
00000010: 8080 8080 8080 8080 8080 8080 8080 8080
00000020: 8080 8080 8080 8080 8080 8080 8080 8080
00000030: 8080 8080 8080 8080 8080 8080 8080 8080
00000040: 8080 8080 8080 8080 8080 8080 8080 8080
00000050: 8080 8080 8080 8080 8080 8080 8080 8080
00000060: 8080 8080 8080 8080 8080 8080 8080 8080
00000070: 8080 8080 8080 8080 8080 8080 8080 8080
00000080: 8080 8080 8080 8080 8080 8080 8080 8080
00000090: 8080 8080 8080 8080 8080 8080 8080 8080
000000a0: 8080 8080 8080 8080 8080 8080 8080 8080
000000b0: 8080 8080 8080 8080 8080 8080 8080 8080
000000c0: 8080 8080 8080 8080 8080 8080 8080 8080
000000d0: 8080 8080 8080 8080 8080 8080 8080 8080
000000e0: 8080 8080 8080 8080 8080 8080 8080 8080
000000f0: 8080 8080 8080 8080 8080 8080 8080 8080

tfl.pseudo_qconst4 i1 [1, 4, 1, 32] scale=1.2743912 zero_point=-128
0.0 0.0 0.0 0.0 0.0 0.0 0.0 0.0
0.0 0.0 0.0 0.0 0.0 0.0 0.0 0.0
0.0 0.0 0.0 0.0 0.0 0.0 0.0 0.0
0.0 0.0 0.0 0.0 0.0 0.0 0.0 0.0
0.0 0.0 0.0 0.0 0.0 0.0 0.0 0.0
0.0 0.0 0.0 0.0 0.0 0.0 0.0 0.0
0.0 0.0 0.0 0.0 0.0 0.0 0.0 0.0
0.0 0.0 0.0 0.0 0.0 0.0 0.0 0.0
0.0 0.0 0.0 0.0 0.0 0.0 0.0 0.0
0.0 0.0 0.0 0.0 0.0 0.0 0.0 0.0
0.0 0.0 0.0 0.0 0.0 0.0 0.0 0.0
0.0 0.0 0.0 0.0 0.0 0.0 0.0 0.0
0.0 0.0 0.0 0.0 0.0 0.0 0.0 0.0
0.0 0.0 0.0 0.0 0.0 0.0 0.0 0.0
0.0 0.0 0.0 0.0 0.0 0.0 0.0 0.0
0.0 0.0 0.0 0.0 0.0 0.0 0.0 0.0
00000000: 8080 8080 8080 8080 8080 8080 8080 8080
00000010: 8080 8080 8080 8080 8080 8080 8080 8080
00000020: 8080 8080 8080 8080 8080 8080 8080 8080
00000030: 8080 8080 8080 8080 8080 8080 8080 8080
00000040: 8080 8080 8080 8080 8080 8080 8080 8080
00000050: 8080 8080 8080 8080 8080 8080 8080 8080
00000060: 8080 8080 8080 8080 8080 8080 8080 8080
00000070: 8080 8080 8080 8080 8080 8080 8080 8080

tfl.pseudo_qconst5 i1 [1, 2, 1, 40] scale=0.101960786 zero_point=-128
0.0 0.0 0.0 0.0 0.0 0.0 0.0 0.0
0.0 0.0 0.0 0.0 0.0 0.0 0.0 0.0
0.0 0.0 0.0 0.0 0.0 0.0 0.0 0.0
0.0 0.0 0.0 0.0 0.0 0.0 0.0 0.0
0.0 0.0 0.0 0.0 0.0 0.0 0.0 0.0
0.0 0.0 0.0 0.0 0.0 0.0 0.0 0.0
0.0 0.0 0.0 0.0 0.0 0.0 0.0 0.0
0.0 0.0 0.0 0.0 0.0 0.0 0.0 0.0
0.0 0.0 0.0 0.0 0.0 0.0 0.0 0.0
0.0 0.0 0.0 0.0 0.0 0.0 0.0 0.0
00000000: 8080 8080 8080 8080 8080 8080 8080 8080
00000010: 8080 8080 8080 8080 8080 8080 8080 8080
00000020: 8080 8080 8080 8080 8080 8080 8080 8080
00000030: 8080 8080 8080 8080 8080 8080 8080 8080
00000040: 8080 8080 8080 8080 8080 8080 8080 8080
